…
- en: The full architecture of the discriminator we will be building is shown in [Table 4-1](#gan_bricks_discriminator).
  id: totrans-30
  prefs: []
  type: TYPE_NORMAL
  zh: 我们将构建的鉴别器的完整架构显示在[表4-1](#gan_bricks_discriminator)中。
- en: Table 4-1\. Model summary of the discriminator
  id: totrans-31
  prefs: []
  type: TYPE_NORMAL
  zh: 表4-1。鉴别器的模型摘要
- en: '| Layer (type) | Output shape | Param # |'
  id: totrans-32
  prefs: []
  type: TYPE_TB
  zh: '| 层（类型） | 输出形状 | 参数 # |'
- en: '| --- | --- | --- |'
  id: totrans-33
  prefs: []
  type: TYPE_TB
  zh: '| --- | --- | --- |'
- en: '| InputLayer | (None, 64, 64, 1) | 0 |'
  id: totrans-34
  prefs: []
  type: TYPE_TB
  zh: '| InputLayer | (None, 64, 64, 1) | 0 |'
- en: '| Conv2D | (None, 32, 32, 64) | 1,024 |'
  id: totrans-35
  prefs: []
  type: TYPE_TB
  zh: '| Conv2D | (None, 32, 32, 64) | 1,024 |'
- en: '| LeakyReLU | (None, 32, 32, 64) | 0 |'
  id: totrans-36
  prefs: []
  type: TYPE_TB
  zh: '| LeakyReLU | (None, 32, 32, 64) | 0 |'
- en: '| Dropout | (None, 32, 32, 64) | 0 |'
  id: totrans-37
  prefs: []
  type: TYPE_TB
  zh: '| Dropout | (None, 32, 32, 64) | 0 |'
- en: '| Conv2D | (None, 16, 16, 128) | 131,072 |'
  id: totrans-38
  prefs: []
  type: TYPE_TB
  zh: '| Conv2D | (None, 16, 16, 128) | 131,072 |'
- en: '| BatchNormalization | (None, 16, 16, 128) | 512 |'
  id: totrans-39
  prefs: []
  type: TYPE_TB
  zh: '| BatchNormalization | (None, 16, 16, 128) | 512 |'
- en: '| LeakyReLU | (None, 16, 16, 128) | 0 |'
  id: totrans-40
  prefs: []
  type: TYPE_TB
  zh: '| LeakyReLU | (None, 16, 16, 128) | 0 |'
- en: '| Dropout | (None, 16, 16, 128) | 0 |'
  id: totrans-41
  prefs: []
  type: TYPE_TB
  zh: '| Dropout | (None, 16, 16, 128) | 0 |'
- en: '| Conv2D | (None, 8, 8, 256) | 524,288 |'
  id: totrans-42
  prefs: []
  type: TYPE_TB
  zh: '| Conv2D | (None, 8, 8, 256) | 524,288 |'
- en: '| BatchNormalization | (None, 8, 8, 256) | 1,024 |'
  id: totrans-43
  prefs: []
  type: TYPE_TB
  zh: '| BatchNormalization | (None, 8, 8, 256) | 1,024 |'
- en: '| LeakyReLU | (None, 8, 8, 256) | 0 |'
  id: totrans-44
  prefs: []
  type: TYPE_TB
  zh: '| LeakyReLU | (None, 8, 8, 256) | 0 |'
- en: '| Dropout | (None, 8, 8, 256) | 0 |'
  id: totrans-45
  prefs: []
  type: TYPE_TB
  zh: '| Dropout | (None, 8, 8, 256) | 0 |'
- en: '| Conv2D | (None, 4, 4, 512) | 2,097,152 |'
  id: totrans-46
  prefs: []
  type: TYPE_TB
  zh: '| Conv2D | (None, 4, 4, 512) | 2,097,152 |'
- en: '| BatchNormalization | (None, 4, 4, 512) | 2,048 |'
  id: totrans-47
  prefs: []
  type: TYPE_TB
  zh: '| BatchNormalization | (None, 4, 4, 512) | 2,048 |'
- en: '| LeakyReLU | (None, 4, 4, 512) | 0 |'
  id: totrans-48
  prefs: []
  type: TYPE_TB
  zh: '| LeakyReLU | (None, 4, 4, 512) | 0 |'
- en: '| Dropout | (None, 4, 4, 512) | 0 |'
  id: totrans-49
  prefs: []
  type: TYPE_TB
  zh: '| Dropout | (None, 4, 4, 512) | 0 |'
- en: '| Conv2D | (None, 1, 1, 1) | 8,192 |'
  id: totrans-50
  prefs: []
  type: TYPE_TB
  zh: '| Conv2D | (None, 1, 1, 1) | 8,192 |'
- en: '| Flatten | (None, 1) | 0 |'
  id: totrans-51
  prefs: []
  type: TYPE_TB
  zh: '| Flatten | (None, 1) | 0 |'
- en: '| Total params | 2,765,312 |'
  id: totrans-52
  prefs: []
  type: TYPE_TB
  zh: '| 总参数 | 2,765,312 |'
- en: '| Trainable params | 2,763,520 |'
  id: totrans-53
  prefs: []
  type: TYPE_TB
  zh: '| 可训练参数 | 2,763,520 |'
- en: '| Non-trainable params | 1,792 |'
  id: totrans-54
  prefs: []
  type: TYPE_TB
  zh: '| 不可训练参数 | 1,792 |'
- en: The Keras code to build the discriminator is provided in [Example 4-4](#the-discriminator-ex).
…
  zh: 这个描述可能让你想起变分自动编码器中的解码器。事实上，GAN的生成器与VAE的解码器完全履行相同的目的：将潜在空间中的向量转换为图像。在生成建模中，从潜在空间映射回原始域的概念非常常见，因为它使我们能够操纵潜在空间中的向量以改变原始域中图像的高级特征。
- en: The architecture of the generator we will be building is shown in [Table 4-2](#gan_bricks_generator).
  id: totrans-71
  prefs: []
  type: TYPE_NORMAL
  zh: 我们将构建的生成器的架构显示在[表4-2](#gan_bricks_generator)中。
- en: Table 4-2\. Model summary of the generator
  id: totrans-72
  prefs: []
  type: TYPE_NORMAL
  zh: 表4-2。生成器的模型摘要
- en: '| Layer (type) | Output shape | Param # |'
  id: totrans-73
  prefs: []
  type: TYPE_TB
  zh: '| 层（类型） | 输出形状 | 参数 # |'
- en: '| --- | --- | --- |'
  id: totrans-74
  prefs: []
  type: TYPE_TB
  zh: '| --- | --- | --- |'
- en: '| InputLayer | (None, 100) | 0 |'
  id: totrans-75
  prefs: []
  type: TYPE_TB
  zh: InputLayer（无，100）0
- en: '| Reshape | (None, 1, 1, 100) | 0 |'
  id: totrans-76
  prefs: []
  type: TYPE_TB
  zh: Reshape（无，1，1，100）0
- en: '| Conv2DTranspose | (None, 4, 4, 512) | 819,200 |'
  id: totrans-77
  prefs: []
  type: TYPE_TB
  zh: Conv2DTranspose（无，4，4，512）819,200
- en: '| BatchNormalization | (None, 4, 4, 512) | 2,048 |'
  id: totrans-78
  prefs: []
  type: TYPE_TB
  zh: BatchNormalization（无，4，4，512）2,048
- en: '| ReLU | (None, 4, 4, 512) | 0 |'
  id: totrans-79
  prefs: []
  type: TYPE_TB
  zh: ReLU（无，4，4，512）0
- en: '| Conv2DTranspose | (None, 8, 8, 256) | 2,097,152 |'
  id: totrans-80
  prefs: []
  type: TYPE_TB
  zh: Conv2DTranspose（无，8，8，256）2,097,152
- en: '| BatchNormalization | (None, 8, 8, 256) | 1,024 |'
  id: totrans-81
  prefs: []
  type: TYPE_TB
  zh: BatchNormalization（无，8，8，256）1,024
- en: '| ReLU | (None, 8, 8, 256) | 0 |'
  id: totrans-82
  prefs: []
  type: TYPE_TB
  zh: ReLU（无，8，8，256）0
- en: '| Conv2DTranspose | (None, 16, 16, 128) | 524,288 |'
  id: totrans-83
  prefs: []
  type: TYPE_TB
  zh: Conv2DTranspose（无，16，16，128）524,288
- en: '| BatchNormalization | (None, 16, 16, 128) | 512 |'
  id: totrans-84
  prefs: []
  type: TYPE_TB
  zh: BatchNormalization（无，16，16，128）512
- en: '| ReLU | (None, 16, 16, 128) | 0 |'
  id: totrans-85
  prefs: []
  type: TYPE_TB
  zh: ReLU（无，16，16，128）0
- en: '| Conv2DTranspose | (None, 32, 32, 64) | 131,072 |'
  id: totrans-86
  prefs: []
  type: TYPE_TB
  zh: Conv2DTranspose（无，32，32，64）131,072
- en: '| BatchNormalization | (None, 32, 32, 64) | 256 |'
  id: totrans-87
  prefs: []
  type: TYPE_TB
  zh: BatchNormalization（无，32，32，64）256
- en: '| ReLU | (None, 32, 32, 64) | 0 |'
  id: totrans-88
  prefs: []
  type: TYPE_TB
  zh: ReLU（无，32，32，64）0
- en: '| Conv2DTranspose | (None, 64, 64, 1) | 1,024 |'
  id: totrans-89
  prefs: []
  type: TYPE_TB
  zh: Conv2DTranspose（无，64，64，1）1,024
- en: '| Total params | 3,576,576 |'
  id: totrans-90
  prefs: []
  type: TYPE_TB
  zh: 总参数3,576,576
- en: '| Trainable params | 3,574,656 |'
  id: totrans-91
  prefs: []
  type: TYPE_TB
  zh: 可训练参数3,574,656
- en: '| Non-trainable params | 1,920 |'
  id: totrans-92
  prefs: []
  type: TYPE_TB
  zh: 不可训练参数1,920
- en: The code for building the generator is given in [Example 4-5](#the-generator-ex).
…
