…
 fully connected layers\n        x = self.relu(self.fc1(pooled))\n        x = self.sigmoid(self.fc2(x))\n\n        return x\n```", "```py\n# Define loss function and optimizer\ncriterion = nn.BCELoss()\noptimizer = optim.Adam(model.parameters(), lr=0.001, \n                       betas=(0.9, 0.999), amsgrad=False)\n```", "```py\n==========================================================================\nLayer (type:depth-idx)                   Output Shape              Param #\n==========================================================================\nTextClassificationModel                  [32, 1]                   --\n├─Embedding: 1-1                         [32, 85, 7]               14,000\n├─LSTM: 1-2                              [32, 85, 48]              6,336\n├─AdaptiveAvgPool1d: 1-3                 [32, 48, 1]               --\n├─Linear: 1-4                            [32, 24]                  1,176\n├─ReLU: 1-5                              [32, 24]                  --\n├─Linear: 1-6                            [32, 1]                   25\n├─Sigmoid: 1-7                           [32, 1]                   --\n==========================================================================\nTotal params: 21,537\nTrainable params: 21,537\nNon-trainable params: 0\nTotal mult-adds (M): 17.72\n==========================================================================\nInput size (MB): 0.02\nForward/backward pass size (MB): 1.20\nParams size (MB): 0.09\nEstimated Total Size (MB): 1.31\n==========================
…
ers,\n    batch_first=True,\n    bidirectional=True\n)\n\n# Second LSTM layer\n# Note: Input size is hidden_dim*2 because first LSTM is bidirectional.\nself.lstm2 = nn.LSTM(\n    input_size=hidden_dim * 2,\n    hidden_size=hidden_dim,\n    num_layers=lstm_layers,\n    batch_first=True,\n    bidirectional=True\n)\n\n```", "```py\n==========================================================================\nLayer (type:depth-idx)                   Output Shape              Param #\n==========================================================================\nTextClassificationModel                  [32, 1]                   --\n├─Embedding: 1-1                         [32, 85, 7]               14,000\n├─LSTM: 1-2                              [32, 85, 48]              6,336\n├─LSTM: 1-3                              [32, 85, 48]              14,208\n├─AdaptiveAvgPool1d: 1-4                 [32, 48, 1]               --\n├─Linear: 1-5                            [32, 24]                  1,176\n├─ReLU: 1-6                              [32, 24]                  --\n├─Linear: 1-7                            [32, 1]                   25\n├─Sigmoid: 1-8                           [32, 1]                   --\n==========================================================================\nTotal params: 35,745\nTrainable params: 35,745\nNon-trainable params: 0\nTotal mult-adds (M): 56.37\n==========================================================================\nInput size (MB): 0.02\nForward/backward pass size (MB): 2.25\nParams size (MB): 0.14\nEstimated Total Size (MB): 2.41\n==========================
…
\n        # Global pooling\n        self.global_pool = nn.AdaptiveAvgPool1d(1)\n\n        # Fully connected layers\n        self.fc1 = nn.Linear(hidden_dim, hidden_dim)\n        self.fc2 = nn.Linear(hidden_dim, 1)\n\n        # Activation functions\n        self.relu = nn.ReLU()\n        self.sigmoid = nn.Sigmoid()\n```", "```py\n==========================================================================\nLayer (type:depth-idx)                   Output Shape              Param #\n==========================================================================\nTextClassificationModel                  [32, 1]                   --\n├─Embedding: 1-1                         [32, 60, 50]              (400,000)\n├─Dropout: 1-2                           [32, 60, 50]              --\n├─LSTM: 1-3                              [32, 60, 16]              6,528\n├─Dropout: 1-4                           [32, 60, 16]              --\n├─AdaptiveAvgPool1d: 1-5                 [32, 16, 1]               --\n├─Linear: 1-6                            [32, 16]                  272\n├─ReLU: 1-7                              [32, 16]                  --\n├─Dropout: 1-8                           [32, 16]                  --\n├─Linear: 1-9                            [32, 1]                   17\n├─Sigmoid: 1-10                          [32, 1]                   --\n==========================================================================\nTotal params: 406,817\nTrainable params: 6,817\nNon-trainable params: 400,000\nTotal mult-adds (M): 25.34\n==========================================================================\nInput size (MB): 0.02\nForward/backward pass size (MB): 1.02\nParams size (MB): 1.63\nEstimated Total Size (MB): 2.66\n====================
…
