…
labels[training_size:]\n```", "```py\nnn.Embedding(vocab_size, embedding_dim)\n```", "```py\nself.embedding = nn.Embedding(vocab_size, embedding_dim)\nself.global_pool = nn.AdaptiveAvgPool1d(1)\nself.fc1 = nn.Linear(embedding_dim, 24)\nself.fc2 = nn.Linear(24, 1)\nself.relu = nn.ReLU()\nself.sigmoid = nn.Sigmoid()\n```", "```py\n==========================================================================\nLayer (type:depth-idx)                   Output Shape              Param #\n==========================================================================\nTextClassificationModel                  [32, 1]                   --\n├─Embedding: 1-1                         [32, 100, 100]            2,429,200\n├─AdaptiveAvgPool1d: 1-2                 [32, 100, 1]              --\n├─Linear: 1-3                            [32, 24]                  2,424\n├─ReLU: 1-4                              [32, 24]                  --\n├─Linear: 1-5                            [32, 1]                   25\n├─Sigmoid: 1-6                           [32, 1]                   --\n==========================================================================\nTotal params: 2,431,649\nTrainable params: 2,431,649\nNon-trainable params: 0\nTotal mult-adds (M): 77.81\n==========================================================================\nInput size (MB): 0.03\nForward/backward pass size (MB): 2.57\nParams size (MB): 9.73\nEstimated Total Size (MB): 12.32\n===================
…
h indices starting from 2\n    vocab = {word: idx + 2 for idx, (word, _) in enumerate(most_common)}\n    vocab['<pad>'] = 0  # Add padding token\n    vocab['<unk>'] = 1  # Add unknown token\n    return vocab\n```", "```py\nvocab_size = 2000\nword_index = build_vocab(training_sentences, max_vocab_size=vocab_size)\n```", "```py\n\n==========================================================================\nLayer (type:depth-idx)                   Output Shape              Param #\n==========================================================================\nTextClassificationModel                  [32, 1]                   --\n├─Embedding: 1-1                         [32, 100, 100]            200,100\n├─AdaptiveAvgPool1d: 1-2                 [32, 100, 1]              --\n├─Linear: 1-3                            [32, 24]                  2,424\n├─ReLU: 1-4                              [32, 24]                  --\n├─Linear: 1-5                            [32, 1]                   25\n├─Sigmoid: 1-6                           [32, 1]                   --\n==========================================================================\nTotal params: 202,549\nTrainable params: 202,549\nNon-trainable params: 0\nTotal mult-adds (M): 6.48\n==========================================================================\nInput size (MB): 0.03\nForward/backward pass size (MB): 2.57\nParams size (MB): 0.81\nEstimated Total Size (MB): 3.40\n=========================
…
