…
 a winner you have been specially\"\n    \" selected to receive $1000 cash or a $2000 award.'\"\n)\ntoken_ids = generate_text_simple(\n    model=model,\n    idx=text_to_token_ids(text_2, tokenizer),\n    max_new_tokens=23,\n    context_size=BASE_CONFIG[\"context_length\"]\n)\nprint(token_ids_to_text(token_ids, tokenizer))\n```", "```py\nIs the following text 'spam'? Answer with 'yes' or 'no': 'You are a winner\nyou have been specially selected to receive $1000 cash \nor a $2000 award.'\nThe following text 'spam'? Answer with 'yes' or 'no': 'You are a winner\n```", "```py\nGPTModel(\n  (tok_emb): Embedding(50257, 768)\n  (pos_emb): Embedding(1024, 768)\n  (drop_emb): Dropout(p=0.0, inplace=False)\n  (trf_blocks): Sequential(\n...\n    (11): TransformerBlock(\n      (att): MultiHeadAttention(\n        (W_query): Linear(in_features=768, out_features=768, bias=True)\n        (W_key): Linear(in_features=768, out_features=768, bias=True)\n        (W_value): Linear(in_features=768, out_features=768, bias=True)\n        (out_proj): Linear(in_features=768, out_features=768, bias=True)\n        (dropout): Dropout(p=0.0, inplace=False)\n      )\n      (ff): FeedForward(\n        (layers): Sequential(\n          (0): Linear(in_features=768, out_features=3072, bias=True)\n          (1): GELU()\n          (2): Linear(in_features=3072, out_features=768, bias=True)\n        )\n      )\n      (norm1): LayerNorm()\n      (norm2): LayerNorm()\n      (drop_resid): Dropout(p=0.0, inplace=False)\n    )\n  )\n  (final_norm): LayerNorm()\n  (out_head): Linear(in_features=768, out_features=50257, bias=False)\n)\n```", "```py\nfor param in model.parameters():\n    param.requires_grad = False\n```", "```py\ntorch.manual_seed(123)\nnum_classes = 2\nmodel.out_head = torch.nn.Linear(\n    in_features=BASE_CONFIG[\"emb_dim\"], \n    out_features=num_classes\n)\n```", "```py\nfor param in model.trf_blocks[-1].parameters():\n    param.requires_grad = True\nfor 
…
