…
requires_grad)\nprint(f\"Total trainable parameters after: {total_params:,}\")\n```", "```py\nTotal trainable parameters before: 124,441,346\nTotal trainable parameters after: 0\n```", "```py\nreplace_linear_with_lora(model, rank=16, alpha=16)\ntotal_params = sum(p.numel() for p in model.parameters() if p.requires_grad)\nprint(f\"Total trainable LoRA parameters: {total_params:,}\")\n```", "```py\nTotal trainable LoRA parameters: 2,666,528\n```", "```py\ndevice = torch.device(\"cuda\" if torch.cuda.is_available() else \"cpu\")\nmodel.to(device)\nprint(model)\n```", "```py\nGPTModel(\n  (tok_emb): Embedding(50257, 768)\n  (pos_emb): Embedding(1024, 768)\n  (drop_emb): Dropout(p=0.0, inplace=False)\n  (trf_blocks): Sequential(\n    ...\n    (11): TransformerBlock(\n      (att): MultiHeadAttention(\n        (W_query): LinearWithLoRA(\n          (linear): Linear(in_features=768, out_features=768, bias=True)\n          (lora): LoRALayer()\n        )\n        (W_key): LinearWithLoRA(\n          (linear): Linear(in_features=768, out_features=768, bias=True)\n          (lora): LoRALayer()\n        )\n        (W_value): LinearWithLoRA(\n          (linear): Linear(in_features=768, out_features=768, bias=True)\n          (lora): LoRALayer()\n        )\n        (out_proj): LinearWithLoRA(\n          (linear): Linear(in_features=768, out_features=768, bias=True)\n          (lora): LoRALayer()\n        )\n        (dropout): Dropout(p=0.0, inplace=False)\n      )\n      (ff): FeedForward(\n        (layers): Sequential(\n          (0): LinearWithLoRA(\n            (linear): Linear(in_features=768, out_features=3072, bias=True)\n            (lora): LoRALayer()\n          )\n          (1): GELU()\n          (2): LinearWithLoRA(\n            (linear): Linear(in_features=3072, out_features=768, bias=True)\n            (lora): LoRALayer()\n          )\n        )\n      )\n      (norm1): LayerNorm()\n      (norm2): LayerNorm()\n      (drop_resid): Dropout(p=0.0, inplace=False)\n    )\n  )\n  (final_norm): LayerNorm()\n  (out_head): LinearWithLoRA(\n    (linear): Linear(in_features=768, out_features=2, bias=True)\n    (lora): LoRALayer()\n  )\n)\n```", "```py\ntorch.manual_seed(123)\n\ntrain_accuracy = calc_accuracy_loader(\n    train_loader, model, device, num_batches=10\n)\nval_accuracy = calc_accuracy_loader(\n    val_loader, model, device, num_batches=10\n)\ntest_accuracy = calc_accuracy_loader(\n    test_loader, model, device, num_batches=10\n)\n\nprint(f\"T
…
