["```py\n>>> import keras\n>>> model = keras.models.load_model(\n...     \"convnet_from_scratch_with_augmentation.keras\"\n... )\n>>> model.summary()\nModel: \"functional_3\"\n┏━━━━━━━━━━━━━━━━━━━━━━━━━━━━━━━━━━━┳━━━━━━━━━━━━━━━━━━━━━━━━━━┳━━━━━━━━━━━━━━━┓\n┃ Layer (type)                      ┃ Output Shape             ┃       Param # ┃\n┡━━━━━━━━━━━━━━━━━━━━━━━━━━━━━━━━━━━╇━━━━━━━━━━━━━━━━━━━━━━━━━━╇━━━━━━━━━━━━━━━┩\n│ input_layer_3 (InputLayer)        │ (None, 180, 180, 3)      │             0 │\n├───────────────────────────────────┼──────────────────────────┼───────────────┤\n│ rescaling_1 (Rescaling)           │ (None, 180, 180, 3)      │             0 │\n├───────────────────────────────────┼──────────────────────────┼───────────────┤\n│ conv2d_11 (Conv2D)                │ (None, 178, 178, 32)     │           896 │\n├───────────────────────────────────┼──────────────────────────┼───────────────┤\n│ max_pooling2d_6 (MaxPooling2D)    │ (None, 89, 89, 32)       │             0 │\n├───────────────────────────────────┼──────────────────────────┼───────────────┤\n│ conv2d_12 (Conv2D)                │ (None, 87, 87, 64)       │        18,496 │\n├───────────────────────────────────┼──────────────────────────┼───────────────┤\n│ max_pooling2d_7 (MaxPooling2D)    │ (None, 43, 43, 64)       │             0 │\n├───────────────────────────────────┼──────────────────────────┼───────────────┤\n│ conv2d_13 (Conv2D)                │ (None, 41, 41, 128)      │        73,856 │\n├───────────────────────────────────┼──────────────────────────┼───────────────┤\n│ max_pooling2d_8 (MaxPooling2D)    │ (None, 20, 20, 128)      │             0 │\n├───────────────────────────────────┼──────────────────────────┼───────────────┤\n│ conv2d_14 (Conv2D)                │ (None, 18, 18, 256)      │       295,168 │\n├───────────────────────────────────┼──────────────────────────┼───────────────┤\n│ max_pooling2d_9 (MaxPooling2D)    │ (None, 9, 9, 256)        │             0 │\n├───────────────────────────────────┼──────────────────────────┼───────────────┤\n│ conv2d_15 (Conv2D)                │ (None, 7, 7, 512)        │     1,180,160 │\n├───────────────────────────────────┼──────────────────────────┼───────────────┤\n│ global_average_pooling2d_3        │ (None, 512)              │             0 │\n│ (GlobalAveragePooling2D)          │                          │               │\n├───────────────────────────────────┼──────────────────────────┼───────────────┤\n│ dropout (Dropout)                 │ (None, 512)              │             0 │\n├───────────────────────────────────┼──────────────────────────┼───────────────┤\n│ dense_3 (Dense)                   │ (None, 1)                │           513 │\n└───────────────────────────────────┴──────────────────────────┴───────────────┘\n Total params: 4,707,269 (17.96 MB)\n Trainable params: 1,569,089 (5.99 MB)\n Non-trainable params: 0 (0.00 B)\n Optimizer params: 3,138,180 (11.97 MB)\n```", "```py\nimport keras\nimport numpy as np\n\n# Downloads a test image\nimg_path = keras.utils.get_file(\n    fname=\"cat.jpg\", origin=\"https://img-dataset
…
