…
 layers.MaxPooling2D(pool_size=2)(x)\nx = layers.Conv2D(filters=256, kernel_size=3, activation=\"relu\")(x)\nx = layers.GlobalAveragePooling2D()(x)\noutputs = layers.Dense(10, activation=\"softmax\")(x)\nmodel = keras.Model(inputs=inputs, outputs=outputs) \n```", "```py\n>>> model.summary()\nModel: \"functional\"\n┏━━━━━━━━━━━━━━━━━━━━━━━━━━━━━━━━━━━┳━━━━━━━━━━━━━━━━━━━━━━━━━━┳━━━━━━━━━━━━━━━┓\n┃ Layer (type)                      ┃ Output Shape             ┃       Param # ┃\n┡━━━━━━━━━━━━━━━━━━━━━━━━━━━━━━━━━━━╇━━━━━━━━━━━━━━━━━━━━━━━━━━╇━━━━━━━━━━━━━━━┩\n│ input_layer (InputLayer)          │ (None, 28, 28, 1)        │             0 │\n├───────────────────────────────────┼──────────────────────────┼───────────────┤\n│ conv2d (Conv2D)                   │ (None, 26, 26, 64)       │           640 │\n├───────────────────────────────────┼──────────────────────────┼───────────────┤\n│ max_pooling2d (MaxPooling2D)      │ (None, 13, 13, 64)       │             0 │\n├───────────────────────────────────┼──────────────────────────┼───────────────┤\n│ conv2d_1 (Conv2D)                 │ (None, 11, 11, 128)      │        73,856 │\n├───────────────────────────────────┼──────────────────────────┼───────────────┤\n│ max_pooling2d_1 (MaxPooling2D)    │ (None, 5, 5, 128)        │             0 │\n├───────────────────────────────────┼──────────────────────────┼───────────────┤\n│ conv2d_2 (Conv2D)                 │ (None, 3, 3, 256)        │       295,168 │\n├───────────────────────────────────┼──────────────────────────┼───────────────┤\n│ global_average_pooling2d          │ (None, 256)              │             0 │\n│ (GlobalAveragePooling2D)          │                          │               │\n├───────────────────────────────────┼──────────────────────────┼───────────────┤\n│ dense (Dense)                     │ (None, 10)               │         2,570 │\n└───────────────────────────────────┴──────────────────────────┴───────────────┘\n Total params: 372,234 (1.42 MB)\n Trainable params: 372,234 (1.42 MB)\n Non-trainable params: 0 (0.00 B)\n```", "```py\nfrom keras.datasets import mnist\n\n(train_images, train_labels), (test_images, test_labels) = mnist.load_data()\ntrain_images = train_images.reshape((60000, 28, 28, 1))\ntrain_images = train_i
…
relu\")(x)\nx = layers.Conv2D(filters=256, kernel_size=3, activation=\"relu\")(x)\nx = layers.GlobalAveragePooling2D()(x)\noutputs = layers.Dense(10, activation=\"softmax\")(x)\nmodel_no_max_pool = keras.Model(inputs=inputs, outputs=outputs) \n```", "```py\n>>> model_no_max_pool.summary()\nModel: \"functional_1\"\n┏━━━━━━━━━━━━━━━━━━━━━━━━━━━━━━━━━━━┳━━━━━━━━━━━━━━━━━━━━━━━━━━┳━━━━━━━━━━━━━━━┓\n┃ Layer (type)                      ┃ Output Shape             ┃       Param # ┃\n┡━━━━━━━━━━━━━━━━━━━━━━━━━━━━━━━━━━━╇━━━━━━━━━━━━━━━━━━━━━━━━━━╇━━━━━━━━━━━━━━━┩\n│ input_layer_1 (InputLayer)        │ (None, 28, 28, 1)        │             0 │\n├───────────────────────────────────┼──────────────────────────┼───────────────┤\n│ conv2d_3 (Conv2D)                 │ (None, 26, 26, 64)       │           640 │\n├───────────────────────────────────┼──────────────────────────┼───────────────┤\n│ conv2d_4 (Conv2D)                 │ (None, 24, 24, 128)      │        73,856 │\n├───────────────────────────────────┼──────────────────────────┼───────────────┤\n│ conv2d_5 (Conv2D)                 │ (None, 22, 22, 256)      │       295,168 │\n├───────────────────────────────────┼──────────────────────────┼───────────────┤\n│ global_average_pooling2d_1        │ (None, 256)              │             0 │\n│ (GlobalAveragePooling2D)          │                          │               │\n├───────────────────────────────────┼──────────────────────────┼───────────────┤\n│ dense_1 (Dense)                   │ (None, 10)               │         2,570 │\n└───────────────────────────────────┴──────────────────────────┴───────────────┘\n Total params: 372,234 (1.42 MB)\n Trainable params: 372,234 (1.42 MB)\n Non-trainable params: 0 (0.00 B)\n```", "```py\ndogs_vs_cats_small/\n...train/\n# Contains 1,000 cat images\n......cat/\n# Contains 1,000 dog images\n......dog/\n...validation/\n# Contains 500 cat images\n......cat/\n# Contains 500 dog image
…
(height, width, 512) into 1D\n# activations with shape (512,) by averaging them over spatial\n# dimensions\nx = layers.GlobalAveragePooling2D()(x)\noutputs = layers.Dense(1, activation=\"sigmoid\")(x)\nmodel = keras.Model(inputs=inputs, outputs=outputs) \n```", "```py\n>>> model.summary()\nModel: \"functional_2\"\n┏━━━━━━━━━━━━━━━━━━━━━━━━━━━━━━━━━━━┳━━━━━━━━━━━━━━━━━━━━━━━━━━┳━━━━━━━━━━━━━━━┓\n┃ Layer (type)                      ┃ Output Shape             ┃       Param # ┃\n┡━━━━━━━━━━━━━━━━━━━━━━━━━━━━━━━━━━━╇━━━━━━━━━━━━━━━━━━━━━━━━━━╇━━━━━━━━━━━━━━━┩\n│ input_layer_2 (InputLayer)        │ (None, 180, 180, 3)      │             0 │\n├───────────────────────────────────┼──────────────────────────┼───────────────┤\n│ rescaling (Rescaling)             │ (None, 180, 180, 3)      │             0 │\n├───────────────────────────────────┼──────────────────────────┼───────────────┤\n│ conv2d_6 (Conv2D)                 │ (None, 178, 178, 32)     │           896 │\n├───────────────────────────────────┼──────────────────────────┼───────────────┤\n│ max_pooling2d_2 (MaxPooling2D)    │ (None, 89, 89, 32)       │             0 │\n├───────────────────────────────────┼──────────────────────────┼───────────────┤\n│ conv2d_7 (Conv2D)                 │ (None, 87, 87, 64)       │        18,496 │\n├───────────────────────────────────┼──────────────────────────┼───────────────┤\n│ max_pooling2d_3 (MaxPooling2D)    │ (None, 43, 43, 64)       │             0 │\n├───────────────────────────────────┼──────────────────────────┼───────────────┤\n│ conv2d_8 (Conv2D)                 │ (None, 41, 41, 128)      │        73,856 │\n├───────────────────────────────────┼──────────────────────────┼───────────────┤\n│ max_pooling2d_4 (MaxPooling2D)    │ (None, 20, 20, 128)      │             0 │\n├───────────────────────────────────┼──────────────────────────┼───────────────┤\n│ conv2d_9 (Conv2D)                 │ (None, 18, 18, 256)      │       295,168 │\n├───────────────────────────────────┼──────────────────────────┼───────────────┤\n│ max_pooling2d_5 (MaxPooling2D)    │ (None, 9, 9, 256)        │             0 │\n├───────────────────────────────────┼──────────────────────────┼───────────────┤\n│ conv2d_10 (Conv2D)                │ (None, 7, 7, 512)        │     1,180,160 │\n├───────────────────────────────────┼──────────────────────────┼───────────────┤\n│ global_average_pooling2d_2        │ (None, 512)              │             0 │\n│ (GlobalAveragePooling2D)          │                          │               │\n├───────────────────────────────────┼──────────────────────────┼───────────────┤\n│ dense_2 (Dense)                   │ (None, 1)                │           513 │\n└───────────────────────────────────┴──────────────────────────┴───────────────┘\n Total params: 1,569,089 (5.99 MB)\n Trainable params: 1,569,089 (5.99 MB)\n Non-trainable params: 0 (0.00 B)\n```", "```py\nmodel.compile(\n    loss=\"binary_crossentropy\",\n    optimizer=\"adam\",\n    metrics=[\"accuracy\"],\n) \n```", "```py\nfrom keras.utils import image_dataset_from_directory\n\nbatch_size
…
