…
layer, since we will apply\n# global average pooling right after it.\nx = residual_block(x, filters=128, pooling=False)\n\nx = layers.GlobalAveragePooling2D()(x)\noutputs = layers.Dense(1, activation=\"sigmoid\")(x)\nmodel = keras.Model(inputs=inputs, outputs=outputs) \n```", "```py\n>>> model.summary()\nModel: \"functional\"\n┏━━━━━━━━━━━━━━━━━━━━━━┳━━━━━━━━━━━━━━━━━━━━┳━━━━━━━━━━━━┳━━━━━━━━━━━━━━━━━━━━━┓\n┃ Layer (type)         ┃ Output Shape       ┃    Param # ┃ Connected to        ┃\n┡━━━━━━━━━━━━━━━━━━━━━━╇━━━━━━━━━━━━━━━━━━━━╇━━━━━━━━━━━━╇━━━━━━━━━━━━━━━━━━━━━┩\n│ input_layer_2        │ (None, 32, 32, 3)  │          0 │ -                   │\n│ (InputLayer)         │                    │            │                     │\n├──────────────────────┼────────────────────┼────────────┼─────────────────────┤\n│ rescaling (Rescaling)│ (None, 32, 32, 3)  │          0 │ input_layer_2[0][0] │\n├──────────────────────┼────────────────────┼────────────┼─────────────────────┤\n│ conv2d_6 (Conv2D)    │ (None, 32, 32, 32) │        896 │ rescaling[0][0]     │\n├──────────────────────┼────────────────────┼────────────┼─────────────────────┤\n│ conv2d_7 (Conv2D)    │ (None, 32, 32, 32) │      9,248 │ conv2d_6[0][0]      │\n├──────────────────────┼────────────────────┼────────────┼─────────────────────┤\n│ max_pooling2d_1      │ (None, 16, 16, 32) │          0 │ conv2d_7[0][0]      │\n│ (MaxPooling2D)       │                    │            │                     │\n├──────────────────────┼────────────────────┼────────────┼─────────────────────┤\n│ conv2d_8 (Conv2D)    │ (None, 16, 16, 32) │        128 │ rescaling[0][0]     │\n├──────────────────────┼────────────────────┼────────────┼─────────────────────┤\n│ add_2 (Add)          │ (None, 16, 16, 32) │          0 │ max_pooling2d_1[0]… │\n│                      │                    │            │ conv2d_8[0][0]      │\n├──────────────────────┼────────────────────┼────────────┼─────────────────────┤\n│ conv2d_9 (Conv2D)    │ (None, 16, 16, 64) │     18,496 │ add_2[0][0]         │\n├──────────────────────┼────────────────────┼────────────┼─────────────────────┤\n│ conv2d_10 (Conv2D)   │ (None, 16, 16, 64) │     36,928 │ conv2d_9[0][0]      │\n├──────────────────────┼────────────────────┼────────────┼─────────────────────┤\n│ max_pooling2d_2      │ (None, 8, 8, 64)   │          0 │ conv2d_10[0][0]     │\n│ (MaxPooling2D)       │                    │            │                     │\n├──────────────────────┼────────────────────┼────────────┼─────────────────────┤\n│ conv2d_11 (Conv2D)   │ (None, 8, 8, 64)   │      2,112 │ add_2[0][0]         │\n├──────────────────────┼────────────────────┼────────────┼─────────────────────┤\n│ add_3 (Add)          │ (None, 8, 8, 64)   │          0 │ max_pooling2d_2[0]… │\n│                      │                    │            │ conv2d_11[0][0]     │\n├──────────────────────┼────────────────────┼────────────┼─────────────────────┤\n│ conv2d_12 (Conv2D)   │ (None, 8, 8, 128)  │     73,856 │ add_3[0][0]         │\n├──────────────────────┼────────────────────┼────────────┼─────────────────────┤\n│ conv2d_13 (Conv2D)   │ (None, 8, 8, 128)  │    147,584 │ conv2d_12[0][0]     │\n├──────────────────────┼────────────────────┼────────────┼─────────────────────┤\n│ conv2d_14 (Conv2D)   │ (None, 8, 8, 128)  │      8,320 │ add_3[0][0]         │\n├──────────────────────┼────────────────────┼────────────┼─────────────────────┤\n│ add_4 (Add)          │ (None, 8, 8, 128)  │          0 │ conv2d_13[0][0],    │\n│                      │                    │            │ conv2d_14[0][0]     │\n├──────────────────────┼────────────────────┼────────────┼─────────────────────┤\n│ global_average_pool… │ (None, 128)        │          0 │ add_4[0][0]         │\n│ (GlobalAveragePooli… │                    │            │                     │\n├──────────────────────┼────────────────────┼────────────┼─────────────────────┤\n│ dense (Dense)        │ (None, 1)          │        129 │ global_average_poo… │\n└──────────────────────┴────────────────────┴────────────┴─────────────────────┘\n Total params: 297,697 (1.14 MB)\n Trainable params: 297,697 (1.14 MB)\n Non-trainable params: 0 (0.00 B)\n```", "```py\nnormalized_data = (data - np.mean(data, axis=...)) / np.std(data, axis=...) \n```", "```py\nx = ...\n# Because the output of the Conv2D layer gets normalized, the layer\n#
…
