…
┡━━━━━━━━━━━━━━━━━━━━━━━╇━━━━━━━━━━━━━━━━━━━╇━━━━━━━━━━━━━╇━━━━━━━━━━━━━━━━━━━━┩\n│ input_layer_7         │ (None, 448, 448,  │           0 │ -                  │\n│ (InputLayer)          │ 3)                │             │                    │\n├───────────────────────┼───────────────────┼─────────────┼────────────────────┤\n│ res_net_backbone_12   │ (None, 14, 14,    │  23,580,512 │ input_layer_7[0][… │\n│ (ResNetBackbone)      │ 2048)             │             │                    │\n├───────────────────────┼───────────────────┼─────────────┼────────────────────┤\n│ conv2d_3 (Conv2D)     │ (None, 6, 6, 512) │   9,437,696 │ res_net_backbone_… │\n├───────────────────────┼───────────────────┼─────────────┼────────────────────┤\n│ flatten_3 (Flatten)   │ (None, 18432)     │           0 │ conv2d_3[0][0]     │\n├───────────────────────┼───────────────────┼─────────────┼────────────────────┤\n│ dense_6 (Dense)       │ (None, 2048)      │  37,750,784 │ flatten_3[0][0]    │\n├───────────────────────┼───────────────────┼─────────────┼────────────────────┤\n│ dropout_3 (Dropout)   │ (None, 2048)      │           0 │ dense_6[0][0]      │\n├───────────────────────┼───────────────────┼─────────────┼────────────────────┤\n│ dense_7 (Dense)       │ (None, 3456)      │   7,081,344 │ dropout_3[0][0]    │\n├───────────────────────┼───────────────────┼─────────────┼────────────────────┤\n│ reshape_3 (Reshape)   │ (None, 6, 6, 96)  │           0 │ dense_7[0][0]      │\n├───────────────────────┼───────────────────┼─────────────┼────────────────────┤\n│ get_item_7 (GetItem)  │ (None, 6, 6, 91)  │           0 │ reshape_3[0][0]    │\n├───────────────────────┼───────────────────┼─────────────┼────────────────────┤\n│ get_item_6 (GetItem)  │ (None, 6, 6, 5)   │           0 │ reshape_3[0][0]    │\n├───────────────────────┼───────────────────┼─────────────┼────────────────────┤\n│ activation_33         │ (None, 6, 6, 91)  │           0 │ get_item_7[0][0]   │\n│ (Activation)          │                   │             │                    │\n└───────────────────────┴───────────────────┴─────────────┴────────────────────┘\n Total params: 77,850,336 (296.98 MB)\n Trainable params: 77,797,088 (296.77 MB)\n Non-trainable params: 53,248 (208.00 KB)\n```", "```py\ndef to_grid(box):\n    x, y, w, h = box\n    cx, cy = (x + w / 2) * grid
…
