…
- en: In our example, we pass the input through two `Dense` layers, the first with
    200 units and the second with 150, both with ReLU activation functions.
  prefs: []
  type: TYPE_NORMAL
- en: Inspecting the model
  prefs:
  - PREF_H3
  type: TYPE_NORMAL
- en: We can use the `model.summary()` method to inspect the shape of the network
    at each layer, as shown in [Table 2-1](#first_nn_shape).
  prefs: []
  type: TYPE_NORMAL
- en: Table 2-1\. Output from the `model.summary()` method
  prefs: []
  type: TYPE_NORMAL
- en: '| Layer (type) | Output shape | Param # |'
  prefs: []
  type: TYPE_TB
- en: '| --- | --- | --- |'
  prefs: []
  type: TYPE_TB
- en: '| InputLayer | (None, 32, 32, 3) | 0 |'
  prefs: []
  type: TYPE_TB
- en: '| Flatten | (None, 3072) | 0 |'
  prefs: []
  type: TYPE_TB
- en: '| Dense | (None, 200) | 614,600 |'
  prefs: []
  type: TYPE_TB
- en: '| Dense | (None, 150) | 30,150 |'
  prefs: []
  type: TYPE_TB
- en: '| Dense | (None, 10) | 1,510 |'
  prefs: []
  type: TYPE_TB
- en: '| Total params | 646,260 |'
  prefs: []
  type: TYPE_TB
- en: '| Trainable params | 646,260 |'
  prefs: []
  type: TYPE_TB
- en: '| Non-trainable params | 0 |'
  prefs: []
  type: TYPE_TB
- en: 'Notice how the shape of our `Input` layer matches the shape of `x_train` and
    the shape of our `Dense` output layer matches the shape of `y_train`. Keras uses
    `None` as a marker for the first dimension to show that it doesn’t yet know the
…
- en: Inspecting the model
  prefs:
  - PREF_H3
  type: TYPE_NORMAL
- en: It’s really informative to look at how the shape of the tensor changes as data
    flows through from one convolutional layer to the next. We can use the `model.summary()`
    method to inspect the shape of the tensor as it passes through the network ([Table 2-2](#conv_net_example_summary)).
  prefs: []
  type: TYPE_NORMAL
- en: Table 2-2\. CNN model summary
  prefs: []
  type: TYPE_NORMAL
- en: '| Layer (type) | Output shape | Param # |'
  prefs: []
  type: TYPE_TB
- en: '| --- | --- | --- |'
  prefs: []
  type: TYPE_TB
- en: '| InputLayer | (None, 32, 32, 3) | 0 |'
  prefs: []
  type: TYPE_TB
- en: '| Conv2D | (None, 16, 16, 10) | 490 |'
  prefs: []
  type: TYPE_TB
- en: '| Conv2D | (None, 8, 8, 20) | 1,820 |'
  prefs: []
  type: TYPE_TB
- en: '| Flatten | (None, 1280) | 0 |'
  prefs: []
  type: TYPE_TB
- en: '| Dense | (None, 10) | 12,810 |'
  prefs: []
  type: TYPE_TB
- en: '| Total params | 15,120 |'
  prefs: []
  type: TYPE_TB
- en: '| Trainable params | 15,120 |'
  prefs: []
  type: TYPE_TB
- en: '| Non-trainable params | 0 |'
  prefs: []
  type: TYPE_TB
- en: 'Let’s walk through our network layer by layer, noting the shape of the tensor
    as we go:'
  prefs: []
  type: TYPE_NORMAL
- en: The input shape is `(None, 32, 32, 3)`—Keras uses `None` to represent the fact
…
    activation, but some successful architectures use these layers the other way around.
    If you do choose to use batch normalization before activation, you can remember
    the order using the acronym *BAD* (batch normalization, activation, then dropout)!
  prefs: []
  type: TYPE_NORMAL
- en: The model summary is shown in [Table 2-3](#cnn_model_summary).
  prefs: []
  type: TYPE_NORMAL
- en: Table 2-3\. Model summary of the CNN for CIFAR-10
  prefs: []
  type: TYPE_NORMAL
- en: '| Layer (type) | Output shape | Param # |'
  prefs: []
  type: TYPE_TB
- en: '| --- | --- | --- |'
  prefs: []
  type: TYPE_TB
- en: '| InputLayer | (None, 32, 32, 3) | 0 |'
  prefs: []
  type: TYPE_TB
- en: '| Conv2D | (None, 32, 32, 32) | 896 |'
  prefs: []
  type: TYPE_TB
- en: '| BatchNormalization | (None, 32, 32, 32) | 128 |'
  prefs: []
  type: TYPE_TB
- en: '| LeakyReLU | (None, 32, 32, 32) | 0 |'
  prefs: []
  type: TYPE_TB
- en: '| Conv2D | (None, 16, 16, 32) | 9,248 |'
  prefs: []
  type: TYPE_TB
- en: '| BatchNormalization | (None, 16, 16, 32) | 128 |'
  prefs: []
  type: TYPE_TB
- en: '| LeakyReLU | (None, 16, 16, 32) | 0 |'
  prefs: []
  type: TYPE_TB
- en: '| Conv2D | (None, 16, 16, 64) | 18,496 |'
  prefs: []
  type: TYPE_TB
- en: '| BatchNormalization | (None, 16, 16, 64) | 256 |'
  prefs: []
  type: TYPE_TB
- en: '| LeakyReLU | (None, 16, 16, 64) | 0 |'
  prefs: []
  type: TYPE_TB
- en: '| Conv2D | (None, 8, 8, 64) | 36,928 |'
  prefs: []
  type: TYPE_TB
- en: '| BatchNormalization | (None, 8, 8, 64) | 256 |'
  prefs: []
  type: TYPE_TB
- en: '| LeakyReLU | (None, 8, 8, 64) | 0 |'
  prefs: []
  type: TYPE_TB
- en: '| Flatten | (None, 4096) | 0 |'
  prefs: []
  type: TYPE_TB
- en: '| Dense | (None, 128) | 524,416 |'
  prefs: []
  type: TYPE_TB
- en: '| BatchNormalization | (None, 128) | 512 |'
  prefs: []
  type: TYPE_TB
- en: '| LeakyReLU | (None, 128) | 0 |'
  prefs: []
  type: TYPE_TB
- en: '| Dropout | (None, 128) | 0 |'
  prefs: []
  type: TYPE_TB
- en: '| Dense | (None, 10) | 1290 |'
  prefs: []
  type: TYPE_TB
- en: '| Total params | 592,554 |'
  prefs: []
  type: TYPE_TB
- en: '| Trainable params | 591,914 |'
  prefs: []
  type: TYPE_TB
- en: '| Non-trainable params | 640 |'
  prefs: []
  type: TYPE_TB
- en: Tip
  prefs:
  - PREF_H6
  type: TYPE_NORMAL
- en: Before moving on, make sure you are able to calculate the output shape and number
    of parameters for each layer by hand. It’s a good exercise to prove to yourself
…
