…
- en: We can use the `model.summary()` method to inspect the shape of the network
    at each layer, as shown in [Table 2-1](#first_nn_shape).
  id: totrans-99
  prefs: []
  type: TYPE_NORMAL
  zh: 我们可以使用`model.summary()`方法来检查每一层网络的形状，如[表2-1](#first_nn_shape)所示。
- en: Table 2-1\. Output from the `model.summary()` method
  id: totrans-100
  prefs: []
  type: TYPE_NORMAL
  zh: 表2-1. `model.summary()`方法的输出
- en: '| Layer (type) | Output shape | Param # |'
  id: totrans-101
  prefs: []
  type: TYPE_TB
  zh: '| 层（类型） | 输出形状 | 参数 # |'
- en: '| --- | --- | --- |'
  id: totrans-102
  prefs: []
  type: TYPE_TB
  zh: '| --- | --- | --- |'
- en: '| InputLayer | (None, 32, 32, 3) | 0 |'
  id: totrans-103
  prefs: []
  type: TYPE_TB
  zh: '| InputLayer | (None, 32, 32, 3) | 0 |'
- en: '| Flatten | (None, 3072) | 0 |'
  id: totrans-104
  prefs: []
  type: TYPE_TB
  zh: '| 展平 | (None, 3072) | 0 |'
- en: '| Dense | (None, 200) | 614,600 |'
  id: totrans-105
  prefs: []
  type: TYPE_TB
  zh: '| Dense | (None, 200) | 614,600 |'
- en: '| Dense | (None, 150) | 30,150 |'
  id: totrans-106
  prefs: []
  type: TYPE_TB
  zh: '| Dense | (None, 150) | 30,150 |'
- en: '| Dense | (None, 10) | 1,510 |'
  id: totrans-107
  prefs: []
  type: TYPE_TB
  zh: '| Dense | (None, 10) | 1,510 |'
- en: '| Total params | 646,260 |'
  id: totrans-108
  prefs: []
  type: TYPE_TB
  zh: '| 总参数 | 646,260 |'
- en: '| Trainable params | 646,260 |'
  id: totrans-109
  prefs: []
  type: TYPE_TB
  zh: '| 可训练参数 | 646,260 |'
- en: '| Non-trainable params | 0 |'
  id: totrans-110
  prefs: []
  type: TYPE_TB
  zh: '| 不可训练参数 | 0 |'
- en: 'Notice how the shape of our `Input` layer matches the shape of `x_train` and
…
    method to inspect the shape of the tensor as it passes through the network ([Table 2-2](#conv_net_example_summary)).
  id: totrans-219
  prefs: []
  type: TYPE_NORMAL
  zh: 从一个卷积层到下一个卷积层，数据流经过时张量形状如何变化真的很有启发性。我们可以使用`model.summary()`方法检查张量在网络中传递时的形状（[表2-2](#conv_net_example_summary)）。
- en: Table 2-2\. CNN model summary
  id: totrans-220
  prefs: []
  type: TYPE_NORMAL
  zh: 表2-2\. CNN模型摘要
- en: '| Layer (type) | Output shape | Param # |'
  id: totrans-221
  prefs: []
  type: TYPE_TB
  zh: '| 层（类型） | 输出形状 | 参数数量 |'
- en: '| --- | --- | --- |'
  id: totrans-222
  prefs: []
  type: TYPE_TB
  zh: '| --- | --- | --- |'
- en: '| InputLayer | (None, 32, 32, 3) | 0 |'
  id: totrans-223
  prefs: []
  type: TYPE_TB
  zh: '| 输入层 | (None, 32, 32, 3) | 0 |'
- en: '| Conv2D | (None, 16, 16, 10) | 490 |'
  id: totrans-224
  prefs: []
  type: TYPE_TB
  zh: '| Conv2D | (None, 16, 16, 10) | 490 |'
- en: '| Conv2D | (None, 8, 8, 20) | 1,820 |'
  id: totrans-225
  prefs: []
  type: TYPE_TB
  zh: '| Conv2D | (None, 8, 8, 20) | 1,820 |'
- en: '| Flatten | (None, 1280) | 0 |'
  id: totrans-226
  prefs: []
  type: TYPE_TB
  zh: '| Flatten | (None, 1280) | 0 |'
- en: '| Dense | (None, 10) | 12,810 |'
  id: totrans-227
  prefs: []
  type: TYPE_TB
  zh: '| Dense | (None, 10) | 12,810 |'
- en: '| Total params | 15,120 |'
  id: totrans-228
  prefs: []
  type: TYPE_TB
  zh: '| 总参数 | 15,120 |'
- en: '| Trainable params | 15,120 |'
  id: totrans-229
  prefs: []
  type: TYPE_TB
  zh: '| 可训练参数 | 15,120 |'
- en: '| Non-trainable params | 0 |'
  id: totrans-230
  prefs: []
  type: TYPE_TB
  zh: '| 不可训练参数 | 0 |'
- en: 'Let’s walk through our network layer by layer, noting the shape of the tensor
…
  zh: 使用批量归一化和激活层的顺序是个人偏好的问题。通常情况下，批量归一化层放在激活层之前，但一些成功的架构会反过来使用这些层。如果选择在激活之前使用批量归一化，可以使用缩写
    *BAD*（批量归一化，激活，然后是dropout）来记住顺序！
- en: The model summary is shown in [Table 2-3](#cnn_model_summary).
  id: totrans-290
  prefs: []
  type: TYPE_NORMAL
  zh: 模型摘要显示在[表2-3](#cnn_model_summary)中。
- en: Table 2-3\. Model summary of the CNN for CIFAR-10
  id: totrans-291
  prefs: []
  type: TYPE_NORMAL
  zh: 表2-3\. CIFAR-10的CNN模型摘要
- en: '| Layer (type) | Output shape | Param # |'
  id: totrans-292
  prefs: []
  type: TYPE_TB
  zh: '| 层（类型） | 输出形状 | 参数 # |'
- en: '| --- | --- | --- |'
  id: totrans-293
  prefs: []
  type: TYPE_TB
  zh: '| --- | --- | --- |'
- en: '| InputLayer | (None, 32, 32, 3) | 0 |'
  id: totrans-294
  prefs: []
  type: TYPE_TB
  zh: '| InputLayer | (None, 32, 32, 3) | 0 |'
- en: '| Conv2D | (None, 32, 32, 32) | 896 |'
  id: totrans-295
  prefs: []
  type: TYPE_TB
  zh: '| Conv2D | (None, 32, 32, 32) | 896 |'
- en: '| BatchNormalization | (None, 32, 32, 32) | 128 |'
  id: totrans-296
  prefs: []
  type: TYPE_TB
  zh: '| BatchNormalization | (None, 32, 32, 32) | 128 |'
- en: '| LeakyReLU | (None, 32, 32, 32) | 0 |'
  id: totrans-297
  prefs: []
  type: TYPE_TB
  zh: '| LeakyReLU | (None, 32, 32, 32) | 0 |'
- en: '| Conv2D | (None, 16, 16, 32) | 9,248 |'
  id: totrans-298
  prefs: []
  type: TYPE_TB
  zh: '| Conv2D | (None, 16, 16, 32) | 9,248 |'
- en: '| BatchNormalization | (None, 16, 16, 32) | 128 |'
  id: totrans-299
  prefs: []
  type: TYPE_TB
  zh: '| BatchNormalization | (None, 16, 16, 32) | 128 |'
- en: '| LeakyReLU | (None, 16, 16, 32) | 0 |'
  id: totrans-300
  prefs: []
  type: TYPE_TB
  zh: '| LeakyReLU | (None, 16, 16, 32) | 0 |'
- en: '| Conv2D | (None, 16, 16, 64) | 18,496 |'
  id: totrans-301
  prefs: []
  type: TYPE_TB
  zh: '| Conv2D | (None, 16, 16, 64) | 18,496 |'
- en: '| BatchNormalization | (None, 16, 16, 64) | 256 |'
  id: totrans-302
  prefs: []
  type: TYPE_TB
  zh: '| BatchNormalization | (None, 16, 16, 64) | 256 |'
- en: '| LeakyReLU | (None, 16, 16, 64) | 0 |'
  id: totrans-303
  prefs: []
  type: TYPE_TB
  zh: '| LeakyReLU | (None, 16, 16, 64) | 0 |'
- en: '| Conv2D | (None, 8, 8, 64) | 36,928 |'
  id: totrans-304
  prefs: []
  type: TYPE_TB
  zh: '| Conv2D | (None, 8, 8, 64) | 36,928 |'
- en: '| BatchNormalization | (None, 8, 8, 64) | 256 |'
  id: totrans-305
  prefs: []
  type: TYPE_TB
  zh: '| BatchNormalization | (None, 8, 8, 64) | 256 |'
- en: '| LeakyReLU | (None, 8, 8, 64) | 0 |'
  id: totrans-306
  prefs: []
  type: TYPE_TB
  zh: '| LeakyReLU | (None, 8, 8, 64) | 0 |'
- en: '| Flatten | (None, 4096) | 0 |'
  id: totrans-307
  prefs: []
  type: TYPE_TB
  zh: '| Flatten | (None, 4096) | 0 |'
- en: '| Dense | (None, 128) | 524,416 |'
  id: totrans-308
  prefs: []
  type: TYPE_TB
  zh: '| Dense | (None, 128) | 524,416 |'
- en: '| BatchNormalization | (None, 128) | 512 |'
  id: totrans-309
  prefs: []
  type: TYPE_TB
  zh: '| BatchNormalization | (None, 128) | 512 |'
- en: '| LeakyReLU | (None, 128) | 0 |'
  id: totrans-310
  prefs: []
  type: TYPE_TB
  zh: '| LeakyReLU | (None, 128) | 0 |'
- en: '| Dropout | (None, 128) | 0 |'
  id: totrans-311
  prefs: []
  type: TYPE_TB
  zh: '| Dropout | (None, 128) | 0 |'
- en: '| Dense | (None, 10) | 1290 |'
  id: totrans-312
  prefs: []
  type: TYPE_TB
  zh: '| Dense | (None, 10) | 1290 |'
- en: '| Total params | 592,554 |'
  id: totrans-313
  prefs: []
  type: TYPE_TB
  zh: '| 总参数 | 592,554 |'
- en: '| Trainable params | 591,914 |'
  id: totrans-314
  prefs: []
  type: TYPE_TB
  zh: '| 可训练参数 | 591,914 |'
- en: '| Non-trainable params | 640 |'
  id: totrans-315
  prefs: []
  type: TYPE_TB
  zh: '| 不可训练参数 | 640 |'
- en: Tip
  id: totrans-316
  prefs:
  - PREF_H6
  type: TYPE_NORMAL
…
