…
    an embedding vector in the latent space. The architecture of the encoder we will
    be building is shown in [Table 3-1](#encoder_diagram).
  id: totrans-40
  prefs: []
  type: TYPE_NORMAL
  zh: 在自动编码器中，编码器的任务是将输入图像映射到潜在空间中的嵌入向量。我们将构建的编码器的架构显示在[表3-1](#encoder_diagram)中。
- en: Table 3-1\. Model summary of the encoder
  id: totrans-41
  prefs: []
  type: TYPE_NORMAL
  zh: 表3-1。编码器的模型摘要
- en: '| Layer (type) | Output shape | Param # |'
  id: totrans-42
  prefs: []
  type: TYPE_TB
  zh: '| 层（类型）| 输出形状 | 参数 # |'
- en: '| --- | --- | --- |'
  id: totrans-43
  prefs: []
  type: TYPE_TB
  zh: '| --- | --- | --- |'
- en: '| InputLayer | (None, 32, 32, 1) | 0 |'
  id: totrans-44
  prefs: []
  type: TYPE_TB
  zh: '| InputLayer |（None，32，32，1）| 0 |'
- en: '| Conv2D | (None, 16, 16, 32) | 320 |'
  id: totrans-45
  prefs: []
  type: TYPE_TB
  zh: '| Conv2D |（None，16，16，32）| 320 |'
- en: '| Conv2D | (None, 8, 8, 64) | 18,496 |'
  id: totrans-46
  prefs: []
  type: TYPE_TB
  zh: '| Conv2D |（None，8，8，64）| 18,496 |'
- en: '| Conv2D | (None, 4, 4, 128) | 73,856 |'
  id: totrans-47
  prefs: []
  type: TYPE_TB
  zh: '| Conv2D |（None，4，4，128）| 73,856 |'
- en: '| Flatten | (None, 2048) | 0 |'
  id: totrans-48
  prefs: []
  type: TYPE_TB
  zh: '| Flatten |（None，2048）| 0 |'
- en: '| Dense | (None, 2) | 4,098 |'
  id: totrans-49
  prefs: []
  type: TYPE_TB
  zh: '| Dense |（None，2）| 4,098 |'
- en: '| Total params | 96,770 |'
  id: totrans-50
  prefs: []
  type: TYPE_TB
  zh: '| 总参数 | 96,770 |'
- en: '| Trainable params | 96,770 |'
  id: totrans-51
  prefs: []
  type: TYPE_TB
  zh: '| 可训练参数 | 96,770 |'
- en: '| Non-trainable params | 0 |'
  id: totrans-52
  prefs: []
  type: TYPE_TB
  zh: '| 不可训练参数 | 0 |'
…
- en: The decoder is a mirror image of the encoder—instead of convolutional layers,
    we use *convolutional transpose* layers, as shown in [Table 3-2](#decoder_diagram).
  id: totrans-70
  prefs: []
  type: TYPE_NORMAL
  zh: 解码器是编码器的镜像——我们使用*卷积转置*层，而不是卷积层，如[表 3-2](#decoder_diagram)所示。
- en: Table 3-2\. Model summary of the decoder
  id: totrans-71
  prefs: []
  type: TYPE_NORMAL
  zh: 表 3-2. 解码器的模型摘要
- en: '| Layer (type) | Output shape | Param # |'
  id: totrans-72
  prefs: []
  type: TYPE_TB
  zh: '| 层（类型） | 输出形状 | 参数 # |'
- en: '| --- | --- | --- |'
  id: totrans-73
  prefs: []
  type: TYPE_TB
  zh: '| --- | --- | --- |'
- en: '| InputLayer | (None, 2) | 0 |'
  id: totrans-74
  prefs: []
  type: TYPE_TB
  zh: '| InputLayer | (None, 2) | 0 |'
- en: '| Dense | (None, 2048) | 6,144 |'
  id: totrans-75
  prefs: []
  type: TYPE_TB
  zh: '| Dense | (None, 2048) | 6,144 |'
- en: '| Reshape | (None, 4, 4, 128) | 0 |'
  id: totrans-76
  prefs: []
  type: TYPE_TB
  zh: '| 重塑 | (None, 4, 4, 128) | 0 |'
- en: '| Conv2DTranspose | (None, 8, 8, 128) | 147,584 |'
  id: totrans-77
  prefs: []
  type: TYPE_TB
  zh: '| Conv2DTranspose | (None, 8, 8, 128) | 147,584 |'
- en: '| Conv2DTranspose | (None, 16, 16, 64) | 73,792 |'
  id: totrans-78
  prefs: []
  type: TYPE_TB
  zh: '| Conv2DTranspose | (None, 16, 16, 64) | 73,792 |'
- en: '| Conv2DTranspose | (None, 32, 32, 32) | 18,464 |'
  id: totrans-79
  prefs: []
  type: TYPE_TB
  zh: '| Conv2DTranspose | (None, 32, 32, 32) | 18,464 |'
- en: '| Conv2D | (None, 32, 32, 1) | 289 |'
  id: totrans-80
  prefs: []
  type: TYPE_TB
  zh: '| Conv2D | (None, 32, 32, 1) | 289 |'
- en: '| Total params | 246,273 |'
  id: totrans-81
  prefs: []
  type: TYPE_TB
  zh: '| 总参数 | 246,273 |'
- en: '| Trainable params | 246,273 |'
  id: totrans-82
  prefs: []
  type: TYPE_TB
  zh: '| 可训练参数 | 246,273 |'
- en: '| Non-trainable params | 0 |'
  id: totrans-83
  prefs: []
  type: TYPE_TB
  zh: '| 不可训练参数 | 0 |'
- en: '[Example 3-4](#the-decoder-ex) shows how we build the decoder in Keras.'
…
- en: A summary of the encoder is shown in [Table 3-4](#vae_clothing_encoder).
  id: totrans-210
  prefs: []
  type: TYPE_NORMAL
  zh: 编码器的摘要显示在[表3-4](#vae_clothing_encoder)中。
- en: Table 3-4\. Model summary of the VAE encoder
  id: totrans-211
  prefs: []
  type: TYPE_NORMAL
  zh: 表3-4. VAE编码器的模型摘要
- en: '| Layer (type) | Output shape | Param # | Connected to |'
  id: totrans-212
  prefs: []
  type: TYPE_TB
  zh: '| Layer (type) | 输出形状 | 参数 # | 连接到 |'
- en: '| --- | --- | --- | --- |'
  id: totrans-213
  prefs: []
  type: TYPE_TB
  zh: '| --- | --- | --- | --- |'
- en: '| InputLayer (input) | (None, 32, 32, 1) | 0 | [] |'
  id: totrans-214
  prefs: []
  type: TYPE_TB
  zh: '| InputLayer (input) | (None, 32, 32, 1) | 0 | [] |'
- en: '| Conv2D (conv2d_1) | (None, 16, 16, 32) | 320 | [input] |'
  id: totrans-215
  prefs: []
  type: TYPE_TB
  zh: '| Conv2D (conv2d_1) | (None, 16, 16, 32) | 320 | [input] |'
- en: '| Conv2D (conv2d_2) | (None, 8, 8, 64) | 18,496 | [conv2d_1] |'
  id: totrans-216
  prefs: []
  type: TYPE_TB
  zh: '| Conv2D (conv2d_2) | (None, 8, 8, 64) | 18,496 | [conv2d_1] |'
- en: '| Conv2D (conv2d_3) | (None, 4, 4, 128) | 73,856 | [conv2d_2] |'
  id: totrans-217
  prefs: []
  type: TYPE_TB
  zh: '| Conv2D (conv2d_3) | (None, 4, 4, 128) | 73,856 | [conv2d_2] |'
- en: '| Flatten (flatten) | (None, 2048) | 0 | [conv2d_3] |'
  id: totrans-218
  prefs: []
  type: TYPE_TB
  zh: '| Flatten (flatten) | (None, 2048) | 0 | [conv2d_3] |'
- en: '| Dense (z_mean) | (None, 2) | 4,098 | [flatten] |'
  id: totrans-219
  prefs: []
  type: TYPE_TB
  zh: '| Dense (z_mean) | (None, 2) | 4,098 | [flatten] |'
- en: '| Dense (z_log_var) | (None, 2) | 4,098 | [flatten] |'
  id: totrans-220
  prefs: []
  type: TYPE_TB
  zh: '| Dense (z_log_var) | (None, 2) | 4,098 | [flatten] |'
- en: '| Sampling (z) | (None, 2) | 0 | [z_mean, z_log_var] |'
  id: totrans-221
  prefs: []
  type: TYPE_TB
  zh: '| Sampling (z) | (None, 2) | 0 | [z_mean, z_log_var] |'
- en: '| Total params | 100,868 |'
  id: totrans-222
  prefs: []
  type: TYPE_TB
  zh: '| 总参数 | 100,868 |'
- en: '| Trainable params | 100,868 |'
  id: totrans-223
  prefs: []
  type: TYPE_TB
  zh: '| 可训练参数 | 100,868 |'
- en: '| Non-trainable params | 0 |'
  id: totrans-224
  prefs: []
  type: TYPE_TB
  zh: '| 不可训练参数 | 0 |'
- en: The only other part of the original autoencoder that we need to change is the
…
    and [3-6](#vae_faces_decoder), respectively.
  id: totrans-285
  prefs: []
  type: TYPE_NORMAL
  zh: '编码器和解码器的完整架构分别显示在表[3-5](#vae_faces_encoder)和表[3-6](#vae_faces_decoder)中。 '
- en: Table 3-5\. Model summary of the VAE faces encoder
  id: totrans-286
  prefs: []
  type: TYPE_NORMAL
  zh: 表3-5。VAE面部编码器的模型摘要
- en: '| Layer (type) | Output shape | Param # | Connected to |'
  id: totrans-287
  prefs: []
  type: TYPE_TB
  zh: '| 层（类型） | 输出形状 | 参数 # | 连接到 |'
- en: '| --- | --- | --- | --- |'
  id: totrans-288
  prefs: []
  type: TYPE_TB
  zh: '| --- | --- | --- | --- |'
- en: '| InputLayer (input) | (None, 32, 32, 3) | 0 | [] |'
  id: totrans-289
  prefs: []
  type: TYPE_TB
  zh: '| 输入层（input） | (None, 32, 32, 3) | 0 | [] |'
- en: '| Conv2D (conv2d_1) | (None, 16, 16, 128) | 3,584 | [input] |'
  id: totrans-290
  prefs: []
  type: TYPE_TB
  zh: '| 卷积层（conv2d_1） | (None, 16, 16, 128) | 3,584 | [input] |'
- en: '| BatchNormalization (bn_1) | (None, 16, 16, 128) | 512 | [conv2d_1] |'
  id: totrans-291
  prefs: []
  type: TYPE_TB
  zh: '| 批量归一化（bn_1） | (None, 16, 16, 128) | 512 | [conv2d_1] |'
- en: '| LeakyReLU (lr_1) | (None, 16, 16, 128) | 0 | [bn_1] |'
  id: totrans-292
  prefs: []
  type: TYPE_TB
  zh: '| LeakyReLU（lr_1） | (None, 16, 16, 128) | 0 | [bn_1] |'
- en: '| Conv2D (conv2d_2) | (None, 8, 8, 128) | 147,584 | [lr_1] |'
  id: totrans-293
  prefs: []
  type: TYPE_TB
  zh: '| 卷积层（conv2d_2） | (None, 8, 8, 128) | 147,584 | [lr_1] |'
- en: '| BatchNormalization (bn_2) | (None, 8, 8, 128) | 512 | [conv2d_2] |'
  id: totrans-294
  prefs: []
  type: TYPE_TB
  zh: '| 批量归一化（bn_2） | (None, 8, 8, 128) | 512 | [conv2d_2] |'
- en: '| LeakyReLU (lr_2) | (None, 8, 8, 128) | 0 | [bn_2] |'
  id: totrans-295
  prefs: []
  type: TYPE_TB
  zh: '| LeakyReLU（lr_2） | (None, 8, 8, 128) | 0 | [bn_2] |'
- en: '| Conv2D (conv2d_3) | (None, 4, 4, 128) | 147,584 | [lr_2] |'
  id: totrans-296
  prefs: []
  type: TYPE_TB
  zh: '| 卷积层（conv2d_3） | (None, 4, 4, 128) | 147,584 | [lr_2] |'
- en: '| BatchNormalization (bn_3) | (None, 4, 4, 128) | 512 | [conv2d_3] |'
  id: totrans-297
  prefs: []
  type: TYPE_TB
  zh: '| 批量归一化（bn_3） | (None, 4, 4, 128) | 512 | [conv2d_3] |'
- en: '| LeakyReLU (lr_3) | (None, 4, 4, 128) | 0 | [bn_3] |'
  id: totrans-298
  prefs: []
  type: TYPE_TB
  zh: '| LeakyReLU（lr_3） | (None, 4, 4, 128) | 0 | [bn_3] |'
- en: '| Conv2D (conv2d_4) | (None, 2, 2, 128) | 147,584 | [lr_3] |'
  id: totrans-299
  prefs: []
  type: TYPE_TB
  zh: '| 卷积层（conv2d_4） | (None, 2, 2, 128) | 147,584 | [lr_3] |'
- en: '| BatchNormalization (bn_4) | (None, 2, 2, 128) | 512 | [conv2d_4] |'
  id: totrans-300
  prefs: []
  type: TYPE_TB
  zh: '| 批量归一化（bn_4） | (None, 2, 2, 128) | 512 | [conv2d_4] |'
- en: '| LeakyReLU (lr_4) | (None, 2, 2, 128) | 0 | [bn_4] |'
  id: totrans-301
  prefs: []
  type: TYPE_TB
  zh: '| LeakyReLU（lr_4） | (None, 2, 2, 128) | 0 | [bn_4] |'
- en: '| Flatten (flatten) | (None, 512) | 0 | [lr_4] |'
  id: totrans-302
  prefs: []
  type: TYPE_TB
  zh: '| 展平（flatten） | (None, 512) | 0 | [lr_4] |'
- en: '| Dense (z_mean) | (None, 200) | 102,600 | [flatten] |'
  id: totrans-303
  prefs: []
  type: TYPE_TB
  zh: '| 密集层（z_mean） | (None, 200) | 102,600 | [flatten] |'
- en: '| Dense (z_log_var) | (None, 200) | 102,600 | [flatten] |'
  id: totrans-304
  prefs: []
  type: TYPE_TB
  zh: '| 密集层（z_log_var） | (None, 200) | 102,600 | [flatten] |'
- en: '| Sampling (z) | (None, 200) | 0 | [z_mean, z_log_var] |'
  id: totrans-305
  prefs: []
  type: TYPE_TB
  zh: '| 采样（z） | (None, 200) | 0 | [z_mean, z_log_var] |'
- en: '| Total params | 653,584 |'
  id: totrans-306
  prefs: []
  type: TYPE_TB
  zh: '| 总参数 | 653,584 |'
- en: '| Trainable params | 652,560 |'
  id: totrans-307
  prefs: []
  type: TYPE_TB
  zh: '| 可训练参数 | 652,560 |'
- en: '| Non-trainable params | 1,024 |'
  id: totrans-308
  prefs: []
  type: TYPE_TB
  zh: '| 不可训练参数 | 1,024 |'
- en: Table 3-6\. Model summary of the VAE faces decoder
  id: totrans-309
  prefs: []
  type: TYPE_NORMAL
  zh: 表3-6。VAE面部解码器的模型摘要
- en: '| Layer (type) | Output shape | Param # |'
  id: totrans-310
  prefs: []
  type: TYPE_TB
  zh: '| 层（类型） | 输出形状 | 参数 # |'
- en: '| --- | --- | --- |'
  id: totrans-311
  prefs: []
  type: TYPE_TB
  zh: '| --- | --- | --- |'
- en: '| InputLayer | (None, 200) | 0 |'
  id: totrans-312
  prefs: []
  type: TYPE_TB
  zh: '| 输入层 | (None, 200) | 0 |'
- en: '| Dense | (None, 512) | 102,912 |'
  id: totrans-313
  prefs: []
  type: TYPE_TB
  zh: '| 密集层 | (None, 512) | 102,912 |'
- en: '| BatchNormalization | (None, 512) | 2,048 |'
  id: totrans-314
  prefs: []
  type: TYPE_TB
  zh: '| 批量归一化 | (None, 512) | 2,048 |'
- en: '| LeakyReLU | (None, 512) | 0 |'
  id: totrans-315
  prefs: []
  type: TYPE_TB
  zh: '| LeakyReLU | (None, 512) | 0 |'
- en: '| Reshape | (None, 2, 2, 128) | 0 |'
  id: totrans-316
  prefs: []
  type: TYPE_TB
  zh: '| 重塑 | (None, 2, 2, 128) | 0 |'
- en: '| Conv2DTranspose | (None, 4, 4, 128) | 147,584 |'
  id: totrans-317
  prefs: []
  type: TYPE_TB
  zh: '| 转置卷积层 | (None, 4, 4, 128) | 147,584 |'
- en: '| BatchNormalization | (None, 4, 4, 128) | 512 |'
  id: totrans-318
  prefs: []
  type: TYPE_TB
  zh: '| 批量归一化 | (None, 4, 4, 128) | 512 |'
- en: '| LeakyReLU | (None, 4, 4, 128) | 0 |'
  id: totrans-319
  prefs: []
  type: TYPE_TB
  zh: '| LeakyReLU | (None, 4, 4, 128) | 0 |'
- en: '| Conv2DTranspose | (None, 8, 8, 128) | 147,584 |'
  id: totrans-320
  prefs: []
  type: TYPE_TB
  zh: '| 转置卷积层 | (None, 8, 8, 128) | 147,584 |'
- en: '| BatchNormalization | (None, 8, 8, 128) | 512 |'
  id: totrans-321
  prefs: []
  type: TYPE_TB
  zh: '| 批量归一化 | (None, 8, 8, 128) | 512 |'
- en: '| LeakyReLU | (None, 8, 8, 128) | 0 |'
  id: totrans-322
  prefs: []
  type: TYPE_TB
  zh: '| LeakyReLU | (None, 8, 8, 128) | 0 |'
- en: '| Conv2DTranspose | (None, 16, 16, 128) | 147,584 |'
  id: totrans-323
  prefs: []
  type: TYPE_TB
  zh: '| 转置卷积层 | (None, 16, 16, 128) | 147,584 |'
- en: '| BatchNormalization | (None, 16, 16, 128) | 512 |'
  id: totrans-324
  prefs: []
  type: TYPE_TB
  zh: '| 批量归一化 | (None, 16, 16, 128) | 512 |'
- en: '| LeakyReLU | (None, 16, 16, 128) | 0 |'
  id: totrans-325
  prefs: []
  type: TYPE_TB
  zh: '| LeakyReLU | (None, 16, 16, 128) | 0 |'
- en: '| Conv2DTranspose | (None, 32, 32, 128) | 147,584 |'
  id: totrans-326
  prefs: []
  type: TYPE_TB
  zh: '| 转置卷积层 | (None, 32, 32, 128) | 147,584 |'
- en: '| BatchNormalization | (None, 32, 32, 128) | 512 |'
  id: totrans-327
  prefs: []
  type: TYPE_TB
  zh: '| 批量归一化 | (None, 32, 32, 128) | 512 |'
- en: '| LeakyReLU | (None, 32, 32, 128) | 0 |'
  id: totrans-328
  prefs: []
  type: TYPE_TB
  zh: '| LeakyReLU | (None, 32, 32, 128) | 0 |'
- en: '| Conv2DTranspose | (None, 32, 32, 3) | 3,459 |'
  id: totrans-329
  prefs: []
  type: TYPE_TB
  zh: '| 转置卷积层 | (None, 32, 32, 3) | 3,459 |'
- en: '| Total params | 700,803 |'
  id: totrans-330
  prefs: []
  type: TYPE_TB
  zh: '| 总参数 | 700,803 |'
- en: '| Trainable params | 698,755 |'
  id: totrans-331
  prefs: []
  type: TYPE_TB
  zh: '| 可训练参数 | 698,755 |'
- en: '| Non-trainable params | 2,048 |'
  id: totrans-332
  prefs: []
  type: TYPE_TB
  zh: '| 不可训练参数 | 2,048 |'
- en: After around five epochs of training, our VAE should be able to produce novel
…
