…
    is a supervised image classification problem, so we can use a similar architecture
    to those we worked with in [Chapter 2](ch02.xhtml#chapter_deep_learning): stacked
    convolutional layers, with a single output node.'
  prefs: []
  type: TYPE_NORMAL
- en: The full architecture of the discriminator we will be building is shown in [Table 4-1](#gan_bricks_discriminator).
  prefs: []
  type: TYPE_NORMAL
- en: Table 4-1\. Model summary of the discriminator
  prefs: []
  type: TYPE_NORMAL
- en: '| Layer (type) | Output shape | Param # |'
  prefs: []
  type: TYPE_TB
- en: '| --- | --- | --- |'
  prefs: []
  type: TYPE_TB
- en: '| InputLayer | (None, 64, 64, 1) | 0 |'
  prefs: []
  type: TYPE_TB
- en: '| Conv2D | (None, 32, 32, 64) | 1,024 |'
  prefs: []
  type: TYPE_TB
- en: '| LeakyReLU | (None, 32, 32, 64) | 0 |'
  prefs: []
  type: TYPE_TB
- en: '| Dropout | (None, 32, 32, 64) | 0 |'
  prefs: []
  type: TYPE_TB
- en: '| Conv2D | (None, 16, 16, 128) | 131,072 |'
  prefs: []
  type: TYPE_TB
- en: '| BatchNormalization | (None, 16, 16, 128) | 512 |'
  prefs: []
  type: TYPE_TB
- en: '| LeakyReLU | (None, 16, 16, 128) | 0 |'
  prefs: []
  type: TYPE_TB
- en: '| Dropout | (None, 16, 16, 128) | 0 |'
  prefs: []
  type: TYPE_TB
- en: '| Conv2D | (None, 8, 8, 256) | 524,288 |'
  prefs: []
  type: TYPE_TB
- en: '| BatchNormalization | (None, 8, 8, 256) | 1,024 |'
  prefs: []
  type: TYPE_TB
- en: '| LeakyReLU | (None, 8, 8, 256) | 0 |'
  prefs: []
  type: TYPE_TB
- en: '| Dropout | (None, 8, 8, 256) | 0 |'
  prefs: []
  type: TYPE_TB
- en: '| Conv2D | (None, 4, 4, 512) | 2,097,152 |'
  prefs: []
  type: TYPE_TB
- en: '| BatchNormalization | (None, 4, 4, 512) | 2,048 |'
  prefs: []
  type: TYPE_TB
- en: '| LeakyReLU | (None, 4, 4, 512) | 0 |'
  prefs: []
  type: TYPE_TB
- en: '| Dropout | (None, 4, 4, 512) | 0 |'
  prefs: []
  type: TYPE_TB
- en: '| Conv2D | (None, 1, 1, 1) | 8,192 |'
  prefs: []
  type: TYPE_TB
- en: '| Flatten | (None, 1) | 0 |'
  prefs: []
  type: TYPE_TB
- en: '| Total params | 2,765,312 |'
  prefs: []
  type: TYPE_TB
- en: '| Trainable params | 2,763,520 |'
  prefs: []
  type: TYPE_TB
- en: '| Non-trainable params | 1,792 |'
  prefs: []
  type: TYPE_TB
- en: The Keras code to build the discriminator is provided in [Example 4-4](#the-discriminator-ex).
  prefs: []
  type: TYPE_NORMAL
- en: Example 4-4\. The discriminator
…
    mapping from a latent space back to the original domain is very common in generative
    modeling, as it gives us the ability to manipulate vectors in the latent space
    to change high-level features of images in the original domain.'
  prefs: []
  type: TYPE_NORMAL
- en: The architecture of the generator we will be building is shown in [Table 4-2](#gan_bricks_generator).
  prefs: []
  type: TYPE_NORMAL
- en: Table 4-2\. Model summary of the generator
  prefs: []
  type: TYPE_NORMAL
- en: '| Layer (type) | Output shape | Param # |'
  prefs: []
  type: TYPE_TB
- en: '| --- | --- | --- |'
  prefs: []
  type: TYPE_TB
- en: '| InputLayer | (None, 100) | 0 |'
  prefs: []
  type: TYPE_TB
- en: '| Reshape | (None, 1, 1, 100) | 0 |'
  prefs: []
  type: TYPE_TB
- en: '| Conv2DTranspose | (None, 4, 4, 512) | 819,200 |'
  prefs: []
  type: TYPE_TB
- en: '| BatchNormalization | (None, 4, 4, 512) | 2,048 |'
  prefs: []
  type: TYPE_TB
- en: '| ReLU | (None, 4, 4, 512) | 0 |'
  prefs: []
  type: TYPE_TB
- en: '| Conv2DTranspose | (None, 8, 8, 256) | 2,097,152 |'
  prefs: []
  type: TYPE_TB
- en: '| BatchNormalization | (None, 8, 8, 256) | 1,024 |'
  prefs: []
  type: TYPE_TB
- en: '| ReLU | (None, 8, 8, 256) | 0 |'
  prefs: []
  type: TYPE_TB
- en: '| Conv2DTranspose | (None, 16, 16, 128) | 524,288 |'
  prefs: []
  type: TYPE_TB
- en: '| BatchNormalization | (None, 16, 16, 128) | 512 |'
  prefs: []
  type: TYPE_TB
- en: '| ReLU | (None, 16, 16, 128) | 0 |'
  prefs: []
  type: TYPE_TB
- en: '| Conv2DTranspose | (None, 32, 32, 64) | 131,072 |'
  prefs: []
  type: TYPE_TB
- en: '| BatchNormalization | (None, 32, 32, 64) | 256 |'
  prefs: []
  type: TYPE_TB
- en: '| ReLU | (None, 32, 32, 64) | 0 |'
  prefs: []
  type: TYPE_TB
- en: '| Conv2DTranspose | (None, 64, 64, 1) | 1,024 |'
  prefs: []
  type: TYPE_TB
- en: '| Total params | 3,576,576 |'
  prefs: []
  type: TYPE_TB
- en: '| Trainable params | 3,574,656 |'
  prefs: []
  type: TYPE_TB
- en: '| Non-trainable params | 1,920 |'
  prefs: []
  type: TYPE_TB
- en: The code for building the generator is given in [Example 4-5](#the-generator-ex).
  prefs: []
  type: TYPE_NORMAL
- en: Example 4-5\. The generator
  prefs:
  - PREF_H5
…
