…
- en: Let’s now see how to build the encoder and decoder.
  prefs: []
  type: TYPE_NORMAL
- en: The Encoder
  prefs:
  - PREF_H2
  type: TYPE_NORMAL
- en: In an autoencoder, the encoder’s job is to take the input image and map it to
    an embedding vector in the latent space. The architecture of the encoder we will
    be building is shown in [Table 3-1](#encoder_diagram).
  prefs: []
  type: TYPE_NORMAL
- en: Table 3-1\. Model summary of the encoder
  prefs: []
  type: TYPE_NORMAL
- en: '| Layer (type) | Output shape | Param # |'
  prefs: []
  type: TYPE_TB
- en: '| --- | --- | --- |'
  prefs: []
  type: TYPE_TB
- en: '| InputLayer | (None, 32, 32, 1) | 0 |'
  prefs: []
  type: TYPE_TB
- en: '| Conv2D | (None, 16, 16, 32) | 320 |'
  prefs: []
  type: TYPE_TB
- en: '| Conv2D | (None, 8, 8, 64) | 18,496 |'
  prefs: []
  type: TYPE_TB
- en: '| Conv2D | (None, 4, 4, 128) | 73,856 |'
  prefs: []
  type: TYPE_TB
- en: '| Flatten | (None, 2048) | 0 |'
  prefs: []
  type: TYPE_TB
- en: '| Dense | (None, 2) | 4,098 |'
  prefs: []
  type: TYPE_TB
- en: '| Total params | 96,770 |'
  prefs: []
  type: TYPE_TB
- en: '| Trainable params | 96,770 |'
  prefs: []
  type: TYPE_TB
- en: '| Non-trainable params | 0 |'
  prefs: []
  type: TYPE_TB
- en: To achieve this, we first create an `Input` layer for the image and pass this
    through three `Conv2D` layers in sequence, each capturing increasingly high-level
    features. We use a stride of 2 to halve the size of the output of each layer,
…
    and filters to understand how the architecture affects the overall number of model
    parameters, model performance, and model runtime.
  prefs: []
  type: TYPE_NORMAL
- en: The Decoder
  prefs:
  - PREF_H2
  type: TYPE_NORMAL
- en: The decoder is a mirror image of the encoder—instead of convolutional layers,
    we use *convolutional transpose* layers, as shown in [Table 3-2](#decoder_diagram).
  prefs: []
  type: TYPE_NORMAL
- en: Table 3-2\. Model summary of the decoder
  prefs: []
  type: TYPE_NORMAL
- en: '| Layer (type) | Output shape | Param # |'
  prefs: []
  type: TYPE_TB
- en: '| --- | --- | --- |'
  prefs: []
  type: TYPE_TB
- en: '| InputLayer | (None, 2) | 0 |'
  prefs: []
  type: TYPE_TB
- en: '| Dense | (None, 2048) | 6,144 |'
  prefs: []
  type: TYPE_TB
- en: '| Reshape | (None, 4, 4, 128) | 0 |'
  prefs: []
  type: TYPE_TB
- en: '| Conv2DTranspose | (None, 8, 8, 128) | 147,584 |'
  prefs: []
  type: TYPE_TB
- en: '| Conv2DTranspose | (None, 16, 16, 64) | 73,792 |'
  prefs: []
  type: TYPE_TB
- en: '| Conv2DTranspose | (None, 32, 32, 32) | 18,464 |'
  prefs: []
  type: TYPE_TB
- en: '| Conv2D | (None, 32, 32, 1) | 289 |'
  prefs: []
  type: TYPE_TB
- en: '| Total params | 246,273 |'
  prefs: []
  type: TYPE_TB
- en: '| Trainable params | 246,273 |'
  prefs: []
  type: TYPE_TB
- en: '| Non-trainable params | 0 |'
  prefs: []
  type: TYPE_TB
- en: '[Example 3-4](#the-decoder-ex) shows how we build the decoder in Keras.'
  prefs: []
  type: TYPE_NORMAL
- en: Example 3-4\. The decoder
  prefs:
  - PREF_H5
  type: TYPE_NORMAL
…
- en: The Keras `Model` that defines the encoder—a model that takes an input image
    and outputs `z_mean`, `z_log_var`, and a sampled point `z` from the normal distribution
    defined by these parameters.
  prefs: []
  type: TYPE_NORMAL
- en: A summary of the encoder is shown in [Table 3-4](#vae_clothing_encoder).
  prefs: []
  type: TYPE_NORMAL
- en: Table 3-4\. Model summary of the VAE encoder
  prefs: []
  type: TYPE_NORMAL
- en: '| Layer (type) | Output shape | Param # | Connected to |'
  prefs: []
  type: TYPE_TB
- en: '| --- | --- | --- | --- |'
  prefs: []
  type: TYPE_TB
- en: '| InputLayer (input) | (None, 32, 32, 1) | 0 | [] |'
  prefs: []
  type: TYPE_TB
- en: '| Conv2D (conv2d_1) | (None, 16, 16, 32) | 320 | [input] |'
  prefs: []
  type: TYPE_TB
- en: '| Conv2D (conv2d_2) | (None, 8, 8, 64) | 18,496 | [conv2d_1] |'
  prefs: []
  type: TYPE_TB
- en: '| Conv2D (conv2d_3) | (None, 4, 4, 128) | 73,856 | [conv2d_2] |'
  prefs: []
  type: TYPE_TB
- en: '| Flatten (flatten) | (None, 2048) | 0 | [conv2d_3] |'
  prefs: []
  type: TYPE_TB
- en: '| Dense (z_mean) | (None, 2) | 4,098 | [flatten] |'
  prefs: []
  type: TYPE_TB
- en: '| Dense (z_log_var) | (None, 2) | 4,098 | [flatten] |'
  prefs: []
  type: TYPE_TB
- en: '| Sampling (z) | (None, 2) | 0 | [z_mean, z_log_var] |'
  prefs: []
  type: TYPE_TB
- en: '| Total params | 100,868 |'
  prefs: []
  type: TYPE_TB
- en: '| Trainable params | 100,868 |'
  prefs: []
  type: TYPE_TB
- en: '| Non-trainable params | 0 |'
  prefs: []
  type: TYPE_TB
- en: The only other part of the original autoencoder that we need to change is the
    loss function.
  prefs: []
  type: TYPE_NORMAL
- en: The Loss Function
…
    to 2,000\. This is a parameter that requires tuning; for this dataset and architecture
    this value was found to generate good results.
  prefs:
  - PREF_UL
  type: TYPE_NORMAL
- en: The full architectures of the encoder and decoder are shown in Tables [3-5](#vae_faces_encoder)
    and [3-6](#vae_faces_decoder), respectively.
  prefs: []
  type: TYPE_NORMAL
- en: Table 3-5\. Model summary of the VAE faces encoder
  prefs: []
  type: TYPE_NORMAL
- en: '| Layer (type) | Output shape | Param # | Connected to |'
  prefs: []
  type: TYPE_TB
- en: '| --- | --- | --- | --- |'
  prefs: []
  type: TYPE_TB
- en: '| InputLayer (input) | (None, 32, 32, 3) | 0 | [] |'
  prefs: []
  type: TYPE_TB
- en: '| Conv2D (conv2d_1) | (None, 16, 16, 128) | 3,584 | [input] |'
  prefs: []
  type: TYPE_TB
- en: '| BatchNormalization (bn_1) | (None, 16, 16, 128) | 512 | [conv2d_1] |'
  prefs: []
  type: TYPE_TB
- en: '| LeakyReLU (lr_1) | (None, 16, 16, 128) | 0 | [bn_1] |'
  prefs: []
  type: TYPE_TB
- en: '| Conv2D (conv2d_2) | (None, 8, 8, 128) | 147,584 | [lr_1] |'
  prefs: []
  type: TYPE_TB
- en: '| BatchNormalization (bn_2) | (None, 8, 8, 128) | 512 | [conv2d_2] |'
  prefs: []
  type: TYPE_TB
- en: '| LeakyReLU (lr_2) | (None, 8, 8, 128) | 0 | [bn_2] |'
  prefs: []
  type: TYPE_TB
- en: '| Conv2D (conv2d_3) | (None, 4, 4, 128) | 147,584 | [lr_2] |'
  prefs: []
  type: TYPE_TB
- en: '| BatchNormalization (bn_3) | (None, 4, 4, 128) | 512 | [conv2d_3] |'
  prefs: []
  type: TYPE_TB
- en: '| LeakyReLU (lr_3) | (None, 4, 4, 128) | 0 | [bn_3] |'
  prefs: []
  type: TYPE_TB
- en: '| Conv2D (conv2d_4) | (None, 2, 2, 128) | 147,584 | [lr_3] |'
  prefs: []
  type: TYPE_TB
- en: '| BatchNormalization (bn_4) | (None, 2, 2, 128) | 512 | [conv2d_4] |'
  prefs: []
  type: TYPE_TB
- en: '| LeakyReLU (lr_4) | (None, 2, 2, 128) | 0 | [bn_4] |'
  prefs: []
  type: TYPE_TB
- en: '| Flatten (flatten) | (None, 512) | 0 | [lr_4] |'
  prefs: []
  type: TYPE_TB
- en: '| Dense (z_mean) | (None, 200) | 102,600 | [flatten] |'
  prefs: []
  type: TYPE_TB
- en: '| Dense (z_log_var) | (None, 200) | 102,600 | [flatten] |'
  prefs: []
  type: TYPE_TB
- en: '| Sampling (z) | (None, 200) | 0 | [z_mean, z_log_var] |'
  prefs: []
  type: TYPE_TB
- en: '| Total params | 653,584 |'
  prefs: []
  type: TYPE_TB
- en: '| Trainable params | 652,560 |'
  prefs: []
  type: TYPE_TB
- en: '| Non-trainable params | 1,024 |'
  prefs: []
  type: TYPE_TB
- en: Table 3-6\. Model summary of the VAE faces decoder
  prefs: []
  type: TYPE_NORMAL
- en: '| Layer (type) | Output shape | Param # |'
  prefs: []
  type: TYPE_TB
- en: '| --- | --- | --- |'
  prefs: []
  type: TYPE_TB
- en: '| InputLayer | (None, 200) | 0 |'
  prefs: []
  type: TYPE_TB
- en: '| Dense | (None, 512) | 102,912 |'
  prefs: []
  type: TYPE_TB
- en: '| BatchNormalization | (None, 512) | 2,048 |'
  prefs: []
  type: TYPE_TB
- en: '| LeakyReLU | (None, 512) | 0 |'
  prefs: []
  type: TYPE_TB
- en: '| Reshape | (None, 2, 2, 128) | 0 |'
  prefs: []
  type: TYPE_TB
- en: '| Conv2DTranspose | (None, 4, 4, 128) | 147,584 |'
  prefs: []
  type: TYPE_TB
- en: '| BatchNormalization | (None, 4, 4, 128) | 512 |'
  prefs: []
  type: TYPE_TB
- en: '| LeakyReLU | (None, 4, 4, 128) | 0 |'
  prefs: []
  type: TYPE_TB
- en: '| Conv2DTranspose | (None, 8, 8, 128) | 147,584 |'
  prefs: []
  type: TYPE_TB
- en: '| BatchNormalization | (None, 8, 8, 128) | 512 |'
  prefs: []
  type: TYPE_TB
- en: '| LeakyReLU | (None, 8, 8, 128) | 0 |'
  prefs: []
  type: TYPE_TB
- en: '| Conv2DTranspose | (None, 16, 16, 128) | 147,584 |'
  prefs: []
  type: TYPE_TB
- en: '| BatchNormalization | (None, 16, 16, 128) | 512 |'
  prefs: []
  type: TYPE_TB
- en: '| LeakyReLU | (None, 16, 16, 128) | 0 |'
  prefs: []
  type: TYPE_TB
- en: '| Conv2DTranspose | (None, 32, 32, 128) | 147,584 |'
  prefs: []
  type: TYPE_TB
- en: '| BatchNormalization | (None, 32, 32, 128) | 512 |'
  prefs: []
  type: TYPE_TB
- en: '| LeakyReLU | (None, 32, 32, 128) | 0 |'
  prefs: []
  type: TYPE_TB
- en: '| Conv2DTranspose | (None, 32, 32, 3) | 3,459 |'
  prefs: []
  type: TYPE_TB
- en: '| Total params | 700,803 |'
  prefs: []
  type: TYPE_TB
- en: '| Trainable params | 698,755 |'
  prefs: []
  type: TYPE_TB
- en: '| Non-trainable params | 2,048 |'
  prefs: []
  type: TYPE_TB
- en: After around five epochs of training, our VAE should be able to produce novel
    images of celebrity faces!
  prefs: []
  type: TYPE_NORMAL
- en: Analysis of the Variational Autoencoder
…
