…
    to those we worked with in [ChapterÂ 2](ch02.xhtml#chapter_deep_learning): stacked
    convolutional layers, with a single output node.'
  id: totrans-29
  prefs: []
  type: TYPE_NORMAL
- en: The full architecture of the discriminator we will be building is shown in [TableÂ 4-1](#gan_bricks_discriminator).
  id: totrans-30
  prefs: []
  type: TYPE_NORMAL
- en: Table 4-1\. Model summary of the discriminator
  id: totrans-31
  prefs: []
  type: TYPE_NORMAL
- en: '| Layer (type) | Output shape | Param # |'
  id: totrans-32
  prefs: []
  type: TYPE_TB
- en: '| --- | --- | --- |'
  id: totrans-33
  prefs: []
  type: TYPE_TB
- en: '| InputLayer | (None, 64, 64, 1) | 0 |'
  id: totrans-34
  prefs: []
  type: TYPE_TB
- en: '| Conv2D | (None, 32, 32, 64) | 1,024 |'
  id: totrans-35
  prefs: []
  type: TYPE_TB
- en: '| LeakyReLU | (None, 32, 32, 64) | 0 |'
  id: totrans-36
  prefs: []
  type: TYPE_TB
- en: '| Dropout | (None, 32, 32, 64) | 0 |'
  id: totrans-37
  prefs: []
  type: TYPE_TB
- en: '| Conv2D | (None, 16, 16, 128) | 131,072 |'
  id: totrans-38
  prefs: []
  type: TYPE_TB
- en: '| BatchNormalization | (None, 16, 16, 128) | 512 |'
  id: totrans-39
  prefs: []
  type: TYPE_TB
- en: '| LeakyReLU | (None, 16, 16, 128) | 0 |'
  id: totrans-40
  prefs: []
  type: TYPE_TB
- en: '| Dropout | (None, 16, 16, 128) | 0 |'
  id: totrans-41
  prefs: []
  type: TYPE_TB
- en: '| Conv2D | (None, 8, 8, 256) | 524,288 |'
  id: totrans-42
  prefs: []
  type: TYPE_TB
- en: '| BatchNormalization | (None, 8, 8, 256) | 1,024 |'
  id: totrans-43
  prefs: []
  type: TYPE_TB
- en: '| LeakyReLU | (None, 8, 8, 256) | 0 |'
  id: totrans-44
  prefs: []
  type: TYPE_TB
- en: '| Dropout | (None, 8, 8, 256) | 0 |'
  id: totrans-45
  prefs: []
  type: TYPE_TB
- en: '| Conv2D | (None, 4, 4, 512) | 2,097,152 |'
  id: totrans-46
  prefs: []
  type: TYPE_TB
- en: '| BatchNormalization | (None, 4, 4, 512) | 2,048 |'
  id: totrans-47
  prefs: []
  type: TYPE_TB
- en: '| LeakyReLU | (None, 4, 4, 512) | 0 |'
  id: totrans-48
  prefs: []
  type: TYPE_TB
- en: '| Dropout | (None, 4, 4, 512) | 0 |'
  id: totrans-49
  prefs: []
  type: TYPE_TB
- en: '| Conv2D | (None, 1, 1, 1) | 8,192 |'
  id: totrans-50
  prefs: []
  type: TYPE_TB
- en: '| Flatten | (None, 1) | 0 |'
  id: totrans-51
  prefs: []
  type: TYPE_TB
- en: '| Total params | 2,765,312 |'
  id: totrans-52
  prefs: []
  type: TYPE_TB
- en: '| Trainable params | 2,763,520 |'
  id: totrans-53
  prefs: []
  type: TYPE_TB
- en: '| Non-trainable params | 1,792 |'
  id: totrans-54
  prefs: []
  type: TYPE_TB
- en: The Keras code to build the discriminator is provided in [ExampleÂ 4-4](#the-discriminator-ex).
…
    modeling, as it gives us the ability to manipulate vectors in the latent space
    to change high-level features of images in the original domain.'
  id: totrans-70
  prefs: []
  type: TYPE_NORMAL
- en: The architecture of the generator we will be building is shown in [TableÂ 4-2](#gan_bricks_generator).
  id: totrans-71
  prefs: []
  type: TYPE_NORMAL
- en: Table 4-2\. Model summary of the generator
  id: totrans-72
  prefs: []
  type: TYPE_NORMAL
- en: '| Layer (type) | Output shape | Param # |'
  id: totrans-73
  prefs: []
  type: TYPE_TB
- en: '| --- | --- | --- |'
  id: totrans-74
  prefs: []
  type: TYPE_TB
- en: '| InputLayer | (None, 100) | 0 |'
  id: totrans-75
  prefs: []
  type: TYPE_TB
  zh: InputLayerï¼ˆæ— ï¼Œ100ï¼‰0
- en: '| Reshape | (None, 1, 1, 100) | 0 |'
  id: totrans-76
  prefs: []
  type: TYPE_TB
  zh: Reshapeï¼ˆæ— ï¼Œ1ï¼Œ1ï¼Œ100ï¼‰0
- en: '| Conv2DTranspose | (None, 4, 4, 512) | 819,200 |'
  id: totrans-77
  prefs: []
  type: TYPE_TB
  zh: Conv2DTransposeï¼ˆæ— ï¼Œ4ï¼Œ4ï¼Œ512ï¼‰819,200
- en: '| BatchNormalization | (None, 4, 4, 512) | 2,048 |'
  id: totrans-78
  prefs: []
  type: TYPE_TB
  zh: BatchNormalizationï¼ˆæ— ï¼Œ4ï¼Œ4ï¼Œ512ï¼‰2,048
- en: '| ReLU | (None, 4, 4, 512) | 0 |'
  id: totrans-79
  prefs: []
  type: TYPE_TB
  zh: ReLUï¼ˆæ— ï¼Œ4ï¼Œ4ï¼Œ512ï¼‰0
- en: '| Conv2DTranspose | (None, 8, 8, 256) | 2,097,152 |'
  id: totrans-80
  prefs: []
  type: TYPE_TB
  zh: Conv2DTransposeï¼ˆæ— ï¼Œ8ï¼Œ8ï¼Œ256ï¼‰2,097,152
- en: '| BatchNormalization | (None, 8, 8, 256) | 1,024 |'
  id: totrans-81
  prefs: []
  type: TYPE_TB
  zh: BatchNormalizationï¼ˆæ— ï¼Œ8ï¼Œ8ï¼Œ256ï¼‰1,024
- en: '| ReLU | (None, 8, 8, 256) | 0 |'
  id: totrans-82
  prefs: []
  type: TYPE_TB
  zh: ReLUï¼ˆæ— ï¼Œ8ï¼Œ8ï¼Œ256ï¼‰0
- en: '| Conv2DTranspose | (None, 16, 16, 128) | 524,288 |'
  id: totrans-83
  prefs: []
  type: TYPE_TB
  zh: Conv2DTransposeï¼ˆæ— ï¼Œ16ï¼Œ16ï¼Œ128ï¼‰524,288
- en: '| BatchNormalization | (None, 16, 16, 128) | 512 |'
  id: totrans-84
  prefs: []
  type: TYPE_TB
  zh: BatchNormalizationï¼ˆæ— ï¼Œ16ï¼Œ16ï¼Œ128ï¼‰512
- en: '| ReLU | (None, 16, 16, 128) | 0 |'
  id: totrans-85
  prefs: []
  type: TYPE_TB
  zh: ReLUï¼ˆæ— ï¼Œ16ï¼Œ16ï¼Œ128ï¼‰0
- en: '| Conv2DTranspose | (None, 32, 32, 64) | 131,072 |'
  id: totrans-86
  prefs: []
  type: TYPE_TB
  zh: Conv2DTransposeï¼ˆæ— ï¼Œ32ï¼Œ32ï¼Œ64ï¼‰131,072
- en: '| BatchNormalization | (None, 32, 32, 64) | 256 |'
  id: totrans-87
  prefs: []
  type: TYPE_TB
  zh: BatchNormalizationï¼ˆæ— ï¼Œ32ï¼Œ32ï¼Œ64ï¼‰256
- en: '| ReLU | (None, 32, 32, 64) | 0 |'
  id: totrans-88
  prefs: []
  type: TYPE_TB
  zh: ReLUï¼ˆæ— ï¼Œ32ï¼Œ32ï¼Œ64ï¼‰0
- en: '| Conv2DTranspose | (None, 64, 64, 1) | 1,024 |'
  id: totrans-89
  prefs: []
  type: TYPE_TB
  zh: Conv2DTransposeï¼ˆæ— ï¼Œ64ï¼Œ64ï¼Œ1ï¼‰1,024
- en: '| Total params | 3,576,576 |'
  id: totrans-90
  prefs: []
  type: TYPE_TB
  zh: æ€»å‚æ•°3,576,576
- en: '| Trainable params | 3,574,656 |'
  id: totrans-91
  prefs: []
  type: TYPE_TB
  zh: å¯è®­ç»ƒå‚æ•°3,574,656
- en: '| Non-trainable params | 1,920 |'
  id: totrans-92
  prefs: []
  type: TYPE_TB
…
