…
                   kernel_initializer=\"he_normal\"),\n    tf.keras.layers.BatchNormalization(),\n    tf.keras.layers.Dense(100, activation=\"relu\",\n                          kernel_initializer=\"he_normal\"),\n    tf.keras.layers.BatchNormalization(),\n    tf.keras.layers.Dense(10, activation=\"softmax\")\n])\n```", "```py\n>>> model.summary()\nModel: \"sequential\"\n_________________________________________________________________\nLayer (type)                 Output Shape              Param #\n=================================================================\nflatten (Flatten)            (None, 784)               0\n_________________________________________________________________\nbatch_normalization (BatchNo (None, 784)               3136\n_________________________________________________________________\ndense (Dense)                (None, 300)               235500\n_________________________________________________________________\nbatch_normalization_1 (Batch (None, 300)               1200\n_________________________________________________________________\ndense_1 (Dense)              (None, 100)               30100\n_________________________________________________________________\nbatch_normalization_2 (Batch (None, 100)               400\n_________________________________________________________________\ndense_2 (Dense)              (None, 10)                1010\n=================================================================\nTotal params: 271,346\nTrainable params: 268,978\nNon-trainable params: 2,368\n_________________________________________________________________\n```", "```py\n>>> [(var.name, var.trainable) for var in model.layers[1].variables]\n[('batch_normalization/gamma:0', True),\n ('batch_normalization/beta:0', True),\n ('batch_normalizati
…
