…
er = 6\n        self.n_head = 8\n        self.n_embd = 512\n        self.vocab_size = 390\n        self.block_size = 2048 \n        self.embd_pdrop = 0.1\n        self.resid_pdrop = 0.1\n        self.attn_pdrop = 0.1\nconfig=Config()\ndevice=\"cuda\" if torch.cuda.is_available() else \"cpu\"\n```", "```py\nfrom utils.ch14util import Model\n\nmodel=Model(config)\nmodel.to(device)\nnum=sum(p.numel() for p in model.transformer.parameters())\nprint(\"number of parameters: %.2fM\" % (num/1e6,))\nprint(model)\n```", "```py\nnumber of parameters: 20.16M\nModel(\n  (transformer): ModuleDict(\n    (wte): Embedding(390, 512)\n    (wpe): Embedding(2048, 512)\n    (drop): Dropout(p=0.1, inplace=False)\n    (h): ModuleList(\n      (0-5): 6 x Block(\n        (ln_1): LayerNorm((512,), eps=1e-05, elementwise_affine=True)\n        (attn): CausalSelfAttention(\n          (c_attn): Linear(in_features=512, out_features=1536, bias=True)\n          (c_proj): Linear(in_features=512, out_features=512, bias=True)\n          (attn_dropout): Dropout(p=0.1, inplace=False)\n          (resid_dropout): Dropout(p=0.1, inplace=False)\n        )\n        (ln_2): LayerNorm((512,), eps=1e-05, elementwise_affine=True)\n        (mlp): ModuleDict(\n          (c_fc): Linear(in_features=512, out_features=2048, bias=True)\n          (c_proj): Linear(in_features=2048, out_features=512, bias=True)\n          (act): GELU()\n          (dropout): Dropout(p=0.1, inplace=False)\n        )\n      )\n    )\n    (ln_f): LayerNorm((512,), eps=1e-05, elementwise_affine=True)\n  )\n  (lm_head): Linear(in_features=512, out_features=390, bias=False)\n)\n```", "```py\nlr=0.0001\noptimizer = torch.optim.Adam(model.parameters(), lr=lr)\nloss_func=torch.nn.CrossEntropyLoss(ignore_index=389)\n```", "```py\nmodel.train()  \nfor i in range(1,101):\n    tloss = 0.\n    for idx, (x,y) in enumerate(trainloader):              ①\n        x,y=x.to(device),y.to(device)\n        output = model(x)\n        loss=
…
