…
_f(x)                            ③\n        logits = self.lm_head(x)                                ④\n        loss = None\n        if targets is not None:\n            loss=F.cross_entropy(logits.view(-1,logits.size(-1)),\n                           targets.view(-1), ignore_index=-1)\n        return logits, loss\n```", "```py\nmodel=GPT2XL(config)\nnum=sum(p.numel() for p in model.transformer.parameters())\nprint(\"number of parameters: %.2fM\" % (num/1e6,))\n```", "```py\nnumber of parameters: 1557.61M\n```", "```py\nprint(model)\n```", "```py\nGPT2XL(\n  (transformer): ModuleDict(\n    (wte): Embedding(50257, 1600)\n    (wpe): Embedding(1024, 1600)\n    (drop): Dropout(p=0.1, inplace=False)\n    (h): ModuleList(\n      (0-47): 48 x Block(\n        (ln_1): LayerNorm((1600,), eps=1e-05, elementwise_affine=True)\n        (attn): CausalSelfAttention(\n          (c_attn): Linear(in_features=1600, out_features=4800, bias=True)\n          (c_proj): Linear(in_features=1600, out_features=1600, bias=True)\n          (attn_dropout): Dropout(p=0.1, inplace=False)\n          (resid_dropout): Dropout(p=0.1, inplace=False)\n        )\n        (ln_2): LayerNorm((1600,), eps=1e-05, elementwise_affine=True)\n        (mlp): ModuleDict(\n          (c_fc): Linear(in_features=1600, out_features=6400, bias=True)\n          (c_proj): Linear(in_features=6400, out_features=1600, bias=True)\n          (act): GELU()\n          (dropout): Dropout(p=0.1, inplace=False)\n        )\n      )\n    )\n    (ln_f): LayerNorm((1600,), eps=1e-05, elementwise_affine=True)\n  )\n  (lm_head): Linear(in_features=1600, out_features=50257, bias=False)\n)\n```", "```py\n!pip install transformers\n```", "```py\nfrom transformers import GPT2LMHeadModel\n\nmodel_hf = GPT2LMHeadModel.from_pretrained('gpt2-xl')         ①\nsd_hf = model_hf.state_dict()                                 ②\nprint(model_hf)                                               ③\n```", "```py\nGPT2LMHeadModel(\n  (transformer): GPT2Model(\n    (wte): Embedding(50257, 1600)\n    (wpe): Embedding(1024, 1600)\n    (drop): Dropout(p=0.1, inplace=False)\n    (h): ModuleList(\n      (0-47): 48 x GPT2Block(\n        (ln_1): LayerNorm((1600,), eps=1e-05, elementwise_affine=True)\n        (attn): GPT2Attention(\n          (c_attn): Conv1D()                                   ①\n          (c_proj): Conv1D()                                   ①\n          (attn_dropout): Dropout(p=0.1, inplace=False)\n          (resid_dropout): Dropout(p=0.1, inplace=False)\n        )\n        (ln_2): LayerNorm((1600,), eps=1e-05, elementwise_affine=True)\n        (mlp): GPT2MLP(\n          (c_fc): Conv1D()                                     ①\n          (c_proj): Conv1D()                                   ①\n          (act): NewGELUActivation()\n          (dropout): Dropout(p=0.1, inplace=False)\n        )\n      )\n    )\n    (ln_f): LayerNorm((1600,), eps=1e-05, elementwise_affine=True)\n  )\n  (lm_head): Linear(in_features=1600, out_features=50257, bias=False)\n)\n```", "```py\nprint(model_hf.transformer.h[0].mlp.c_fc.weight.shape)\n```", "```py\ntorch.Size([1600, 6400])\n```", "```py\nprint(model.transformer.h[0].mlp.c_fc.weight.shape)\n```", "```py\ntorch.Size([6400, 1600])\n```", "```py\nkeys = [k for k in sd_hf if not k.endswith('attn.masked_bias')] \n```", "```py\nsd=model.state_dict()\n```", "```py
…
