…
vice)              ①\n        tok_emb = self.transformer.wte(idx) \n        pos_emb = self.transformer.wpe(pos) \n        x = self.transformer.drop(tok_emb + pos_emb)\n        for block in self.transformer.h:\n            x = block(x)\n        x = self.transformer.ln_f(x)\n        logits = self.lm_head(x)\n        return logits\n```", "```py\nmodel=Model(config)\nmodel.to(device)\nnum=sum(p.numel() for p in model.transformer.parameters())\nprint(\"number of parameters: %.2fM\" % (num/1e6,))\nprint(model)\n```", "```py\nnumber of parameters: 5.12M\nModel(\n  (transformer): ModuleDict(\n    (wte): Embedding(10600, 256)\n    (wpe): Embedding(128, 256)\n    (drop): Dropout(p=0.1, inplace=False)\n    (h): ModuleList(\n      (0-2): 3 x Block(\n        (ln_1): LayerNorm((256,), eps=1e-05, elementwise_affine=True)\n        (attn): CausalSelfAttention(\n          (c_attn): Linear(in_features=256, out_features=768, bias=True)\n          (c_proj): Linear(in_features=256, out_features=256, bias=True)\n          (attn_dropout): Dropout(p=0.1, inplace=False)\n          (resid_dropout): Dropout(p=0.1, inplace=False)\n        )\n        (ln_2): LayerNorm((256,), eps=1e-05, elementwise_affine=True)\n        (mlp): ModuleDict(\n          (c_fc): Linear(in_features=256, out_features=1024, bias=True)\n          (c_proj): Linear(in_features=1024, out_features=256, bias=True)\n          (act): GELU()\n          (dropout): Dropout(p=0.1, inplace=False)\n        )\n      )\n    )\n    (ln_f): LayerNorm((256,), eps=1e-05, elementwise_affine=True)\n  )\n  (lm_head): Linear(in_features=256, out_features=10600, bias=False)\n)\n```", "```py\nlr=0.0001\noptimizer = torch.optim.Adam(model.parameters(), lr=lr)\nloss_func = nn.CrossEntropyLoss()\n```", "```py\nmodel.train()  \nfor i in range(1,41):\n    tloss = 0.\n    for idx, (x,y) in enumerate(loader):                      ①\n        x,y=x.to(device),y.to(device)\n        output = model(x)\n        loss=loss_func(output
…
