…
Dropout(),\n            nn.Linear(256 * 6 * 6, 4096),\n            nn.ReLU(),\n            nn.Dropout(),\n            nn.Linear(4096, 4096),\n            nn.ReLU(),\n            nn.Linear(4096, num_classes)\n        )\n\n    def forward(self, x):\n      x = self.features(x)\n      x = self.avgpool(x)\n      x = torch.flatten(x, 1)\n      x = self.classifier(x)\n      return x\n```", "```py\nnn.Conv2d(in_channels,out_channels, kernel_size, stride, padding)\n```", "```py\nimport torchvision.models as models\nalexnet = models.alexnet(num_classes=2)\n```", "```py\nprint(model)\n\nResNet(\n  (conv1): Conv2d(3, 64, kernel_size=(7, 7), stride=(2, 2), padding=(3, 3),\n  bias=False)\n  (bn1): BatchNorm2d(64, eps=1e-05, momentum=0.1, affine=True,\ntrack_running_stats=True)\n  (relu): ReLU(inplace)\n  (maxpool): MaxPool2d(kernel_size=3, stride=2, padding=1,\n  dilation=1, ceil_mode=False)\n  (layer1): Sequential(\n    (0): BasicBlock(\n      (conv1): Conv2d(64, 64, kernel_size=(3, 3), stride=(1, 1),\n      padding=(1, 1), bias=False)\n      (bn1): BatchNorm2d(64, eps=1e-05, momentum=0.1, affine=True,\n       track_running_stats=True)\n      (relu): ReLU(inplace)\n      (conv2): Conv2d(64, 64, kernel_size=(3, 3), stride=(1, 1),\n      padding=(1, 1), bias=False)\n      (bn2): BatchNorm2d(64, eps=1e-05, momentum=0.1, affine=True,\n       track_running_stats=True)\n    )\n    (1): BasicBlock(\n      (conv1): Conv2d(64, 64, kernel_size=(3, 3), stride=(1, 1),\n       padding=(1, 1), bias=False)\n      (bn1): BatchNorm2d(64, eps=1e-05, momentum=0.1, affine=True,\n       track_running_stats=True)\n      (relu): ReLU(inplace)\n      (conv2): Conv2d(64, 64, kernel_size=(3, 3), stride=(1, 1),\n      padding=(1, 1), bias=False)\n      (bn2): BatchNorm2d(64, eps=1e-05, momentum=0.1, affine=True,\n       track_running_stats=True)\n    )\n  )\n  (layer2): Sequential(\n    (0): BasicBlock(\n      (conv1): Conv2d(64, 128, kernel_size=(3, 3), stride=(2, 2),\n       padding=(1, 1), bias=False)\n      (bn1): BatchNorm2d(128, eps=1e-05, momentum=0.1, affine=True,\n       track_running_stats=True)\n      (relu): ReLU(inplace)\n      (conv2): Conv2d(128, 128, kernel_size=(3, 3), stride=(1, 1),\n       padding=(1, 1), bias=False)\n      (bn2): BatchNorm2d(128, eps=1e-05, momentum=0.1, affine=True,\n       track_running_stats=True)\n      (downsample): Sequential(\n        (0): Conv2d(64, 128, kernel_size=(1, 1), stride=(2, 2),\n         bias=False)\n        (1): BatchNorm2d(128, eps=1e-05, momentum=0.1, affine=True,\n         track_running_stats=True)\n      )\n    )\n    (1): BasicBlock(\n      (conv1): Conv2d(128, 128, kernel_size=(3, 3), stride=(1, 1),\n       padding=(1, 1), bias=False)\n      (bn1): BatchNorm2d(128, eps=1e-05, momentum=0.1, affine=True,\n       track_running_stats=True)\n      (relu): ReLU(inplace)\n      (conv2): Conv2d(128, 128, kernel_size=(3, 3), stride=(1, 1),\n       padding=(1, 1), bias=False)\n      (bn2): BatchNorm2d(128, eps=1e-05, momentum=0.1, affine=True,\n      track_running_stats=True)\n    )\n  )\n  (layer3): Sequential(\n    (0): BasicBlock(\n      (conv1): Conv2d(128, 256, kernel_size=(3, 3), stride=(2, 2),\n       padding=(1, 1), bias=False)\n      (bn1): BatchNorm2d(256, eps=1e-05, momentum=0.1, affine=True,\n      track_running_stats=True)\n      (relu): ReLU(inplace)\n      (conv2): Conv2d(256, 256, kernel_size=(3, 3), stride=(1, 1),\n      padding=(1, 1), bias=False)\n      (bn2): BatchNorm2d(256, eps=1e-05, momentum=0.1, affine=True,\n      track_running_stats=True)\n      (downsample): Sequential(\n        (0): Conv2d(128, 256, kernel_size=(1, 1), stride=(2, 2),\n        bias=False)\n        (1): BatchNorm2d(256, eps=1e-05, momentum=0.1, affine=True,\n        track_running_stats=True)\n      )\n    )\n    (1): BasicBlock(\n      (conv1): Conv2d(256, 256, kernel_size=(3, 3), stride=(1, 1),\n      padding=(1, 1), bias=False)\n      (bn1): BatchNorm2d(256, eps=1e-05, momentum=0.1, affine=True,\n      track_running_stats=True)\n      (relu): ReLU(inplace)\n      (conv2): Conv2d(256, 256, kernel_size=(3, 3), stride=(1, 1),\n      padding=(1, 1), bias=False)\n      (bn2): BatchNorm2d(256, eps=1e-05, momentum=0.1, affine=True,\n      track_running_stats=True)\n    )\n  )\n  (layer4): Sequential(\n    (0): BasicBlock(\n      (conv1): Conv2d(256, 512, kernel_size=(3, 3), stride=(2, 2),\n      padding=(1, 1), bias=False)\n      (bn1): BatchNorm2d(512, eps=1e-05, momentum=0.1, affine=True,\n      track_running_stats=True)\n      (relu): ReLU(inplace)\n      (conv2): Conv2d(512, 512, kernel_size=(3, 3), stride=(1, 1),\n      padding=(1, 1), bias=False)\n      (bn2): BatchNorm2d(512, eps=1e-05, momentum=0.1, affine=True,\n      track_running_stats=True)\n      (downsample): Sequential(\n        (0): Conv2d(256, 512, kernel_size=(1, 1), stride=(2, 2),\n        bias=False)\n        (1): BatchNorm2d(512, eps=1e-05, momentum=0.1, affine=True,\n        track_running_stats=True)\n      )\n    )\n    (1): BasicBlock(\n      (conv1): Conv2d(512, 512, kernel_size=(3, 3), stride=(1, 1),\n      padding=(1, 1), bias=False)\n      (bn1): BatchNorm2d(512, eps=1e-05, momentum=0.1, affine=True,\n       track_running_stats=True)\n      (relu): ReLU(inplace)\n      (conv2): Conv2d(512, 512, kernel_size=(3, 3), stride=(1, 1),\n      padding=(1, 1), bias=False)\n      (bn2): BatchNorm2d(512, eps=1e-05, momentum=0.1, affine=True,\n      track_running_stats=True)\n    )\n  )\n  (avgpool): AdaptiveAvgPool2d(output_size=(1, 1))\n  (fc): Linear(in_features=512, out_features=1000, bias=True)\n)\n```", "```py\nmodel = torch.hub.load('pytorch/vision', 'resnet50', pretrained=True)\n```"]