…
\", \"negative3\",\n    \"negative4\", \"negative5\", \"negative6\"\n]\nvalid_names = [\"lsj\", \"pengxl\", \"negative2\", \"negative7\"]\ntest_names = [\"liucx\", \"zhangxy\", \"negative1\", \"negative8\"]\n```", "```py\n# Load TensorBoard\n%load_ext tensorboard\n%tensorboard --logdir logs/scalars\n```", "```py\n!python train.py --model CNN --person true\n```", "```py\n_________________________________________________________________\nLayer (type)                 Output Shape              Param #\n=================================================================\nconv2d (Conv2D)              (None, 128, 3, 8)         104\n_________________________________________________________________\nmax_pooling2d (MaxPooling2D) (None, 42, 1, 8)          0\n_________________________________________________________________\ndropout (Dropout)            (None, 42, 1, 8)          0\n_________________________________________________________________\nconv2d_1 (Conv2D)            (None, 42, 1, 16)         528\n_________________________________________________________________\nmax_pooling2d_1 (MaxPooling2 (None, 14, 1, 16)         0\n_________________________________________________________________\ndropout_1 (Dropout)          (None, 14, 1, 16)         0\n_________________________________________________________________\nflatten (Flatten)            (None, 224)               0\n_________________________________________________________________\ndense (Dense)                (None, 16)                3600\n_________________________________________________________________\ndropout_2 (Dropout)          (None, 16)                0\n_________________________________________________________________\ndense_1 (Dense)              (None, 4)                 68\n=================================================================\n```", "```py\nModel size: 16.796875 KB\n```", "```py\n1000/1000 [==============================] - 12s 12ms/step - loss: 7.6510 - accuracy: 0.5207 - val_loss: 4.5836 - val_accuracy: 0.7206\n```", "```py\nEpoch 50/50\n1000/1000 [==============================] - 7s 7ms/step - loss: 0.0568 -\n\naccuracy: 0.9835 - val_loss: 0.1185 -
…
